checkpoints/TransductionFC_300000_06-01-2023-17-19-20.pth (torch, 159511 bytes, 6 tensors)

layers.0.weight f4 [128, 89]
00000000: d8bd 893f ed31 363c ebd1 d8bd 9bec 8dc0
00000010: 579b 80bd 7e73 64bf 3b0d 41c0 c2a9 e5be
00000020: 47f0 9fbf b349 993c 1d76 4f3e a30e c23e
00000030: 4886 75c0 9e5f 9ac0 5fc7 c13e a1ad 05c0
00000040: 9da7 9fc0 e053 48c0 b461 75bb aa9a 9c3d
00000050: 10c9 123c 355c 433d 8c23 b7bd 44ea 0fbb
00000060: 33e9 0bc0 598c ecbf 7761 2cbf e2e5 c5bf
00000070: e735 b33b 7c69 04bc 46b2 38bd 9822 723d
00000080: dbd9 3ebc 3feb aa3d b294 9ac0 f639 a5c0
00000090: 6ad1 8d3c 1ab6 953c 3f1c 193d 9078 d3bc
000000a0: 9c0a 48bc d72f 68bd 3a20 34bd 4595 29c1
000000b0: f44d 603c 59bc 23bb 2778 643d e8b5 fe3b
000000c0: a371 653d 89f5 26bd 319b 33bd edc8 cfbb
000000d0: c6c0 60bc 42d4 7cbc d4c2 87bb 46c2 82bc
000000e0: e1a2 a93c 80ab e43c 1bb4 a9bb 3861 0d3b
000000f0: 343d bcbc 6021 623d e5e1 1fbd 4c20 d5bd
00000100: 25fc 92bc 3b35 c4bc 9983 0dc0 38fb 5fbd
00000110: 9ccf 04c0 5c2c aabc c8fd 37c0 dacb 05bd
00000120: 3a51 3f3d 487f 853d 3951 7ec0 930e 093e
00000130: 56a0 2d3d f403 013e 91c8 a3bd a0bd 093e
00000140: 6597 e03e 63c7 1f3f 3eae 0b3f 15c8 873f
00000150: b999 8a3f a6fb 33bb 1a87 363d 03d2 ab3f
00000160: 8924 1a3e dbe5 5bbf e38e 98bf 7afd 04c0
00000170: b9b7 87c0 bbab 12c1 4784 7fc0 319f 95c0
00000180: e0c1 cac0 e0b6 33c0 4fc4 963e 5d1f 803e
00000190: 6154 27be 6b0e 573c 7cc7 b23d ecf6 73bc
000001a0: 36eb c23d 23bc 1b38 4448 103d c0fd 7e3d
000001b0: 8306 13c0 ebc6 91c0 83a9 96bf 741e 1a3d
000001c0: 044d 0f3d c83d 9d3d 599e 283d 867a 743d
000001d0: 2964 94bc 4545 e7bd 8a84 d43c 6487 5c3d
000001e0: b2c4 2d3d 3d32 0a3d b6ca 383d 4f0c 88bd
000001f0: 48f4 56bd a501 ac3d 414f a03d 184d 87bd
00000200: 1708 babd cb55 7e3c e8d2 14bd b8e2 2f3d
00000210: cee9 b73c 82ef fd3d 5f25 10bb a460 e03b
00000220: a16f 283e 2b1e aabd fcfa 853d 482e 83b9
00000230: 8b2d 14bd 2462 f03c 885b f5bc 4ce9 1e3d
00000240: 9cef b33d ea5f 693d 5877 743d 43eb 5a3c
00000250: 8904 a8c0 2bf0 6f3d c0af e13c eff3 8d3d
00000260: 6de3 7f3d 64fe a73c 0e14 913d 39c1 2dbc
00000270: 7931 afc0 c7fb bfc0 ac63 04c1 178e abc0
00000280: bdb2 01c1 be90 0fc1 d93e e4c0 ff81 edc0
00000290: 5bf6 fec0 32a2 98c0 678f cac0 a79f e7c0
000002a0: 44a5 b5c0 d977 d1c0 edb3 14c0 7324 68c0
000002b0: fbac 89c0 505b 81bf ca45 373d ab29 bbbe
000002c0: e732 46be 09a2 1b3e 2ea4 5f3f 3201 cfbe
000002d0: c3aa 1d3f d8f7 2d3f 2f9c 913f 9d84 3dbf
000002e0: 53f5 993e 6642 6b3e 6342 06be f03b 403d
000002f0: 7b14 9abe eeea b93e d32f 0ebd b74f 30c0
00000300: 5a3a a7be 433e 62bd efb3 853d 693b 84bf
00000310: a90f 1abe f546 4b3e 1a8c 2c3d b487 9b3d
00000320: 8463 9bba 7068 46bd 90ee febd c7f3 c53d
00000330: a674 203e 1f80 3bbd 9f43 b83e 3113 dd3d
00000340: 8c3c 80bd 3f92 f5bd c73e 1d3d be83 4fc0
00000350: 3a6f e43d aa88 88bc 5962 503d 82ca 013d
00000360: 1571 963d 1301 593d e0eb 63be 68d6 b0bd
00000370: cf91 0d3d a066 cf3d 8b00 703e 0337 a4bd
00000380: c038 be3d de84 a1bb 095b b83d df8a afbc
00000390: 7337 313d ecb0 76bd f3b3 9bbd fb12 003e
000003a0: 959f a23c d0b0 793e a76b 1ebd 4578 00be
000003b0: 7033 323e 0210 fcc0 d933 3b3e eda3 6ebd
000003c0: 9e4f 8e3d de04 4b3d 25a5 5a3d 1d59 0f3d
000003d0: 1661 413e 5edf 28bd 928d a63e b92c f93d
000003e0: 00bc 213f 4b6d 863d 7725 cf3e 7a29 d93e
000003f0: c402 8b3e 23a4 313e 276b 89be ae91 093f
1.0761061 0.011120302 -0.10586914 -4.4351325 -0.06279629 -0.8923873 -3.0164325 -0.44856077
-1.2495202 0.0187119 0.202599 0.37901792 -3.8363209 -4.824172 0.3784742 -2.0887225
-4.9892106 -3.1301193 -0.0037442269 0.07646687 0.00895907 0.047695357 -0.08942327 -0.0021959702
-2.1861084 -1.8480331 -0.6733622 -1.546078 0.005469072 -0.00808179 -0.04509189 0.059115022
-0.0116486205 0.08345651 -4.8306513 -5.1633253 0.01731177 0.01827531 0.037380453 -0.025814325
-0.012209561 -0.05668625 -0.043976046 -10.598943 0.0136904605 -0.002498409 0.05577865 0.0077731498
0.056016576 -0.040761504 -0.043849174 -0.006341091 -0.013717836 -0.015431466 -0.0041430984 -0.015961777
0.02070755 0.027913809 -0.005178941 0.002157284 -0.022978403 0.05520761 -0.03903379 -0.10406551
-0.017942498 -0.023951164 -2.211157 -0.05468294 -2.0751715 -0.020773105 -2.8748646 -0.03266511
0.046708323 0.065184176 -3.9737074 0.13384466 0.042389236 0.12599164 -0.079972394 0.13451242
0.43865505 0.62413615 0.5456275 1.0607935 1.0828162 -0.0027463227 0.044562437 1.3423465
0.15053 -0.85897607 -1.1918606 -2.077971 -4.241177 -9.166926 -3.9924486 -4.6756825
-6.3361664 -2.8080368 0.29446647 0.25023928 -0.16340782 0.013125996 0.08729455 -0.014890414
0.09517519 3.7130096e-05 0.035225168 0.062253714 -2.2972724 -4.555532 -1.1770481 0.0376267
0.034985557 0.076777995 0.041166637 0.05968716 -0.018114166 -0.11292509 0.025942106 0.053840056
0.04242391 0.033739317 0.045115195 -0.06642973 -0.05247906 0.08398751 0.078276165 -0.06606501
-0.09083574 0.015523384 -0.03633395 0.042940825 0.022450354 0.12399198 -0.002199493 0.006847458
0.16448833 -0.08306535 0.06542012 -0.0002502075 -0.036176246 0.029343672 -0.029950872 0.038796708
0.08785936 0.056976236 0.059684128 0.013361755 -5.2505536 0.05857865 0.027549624 0.06931292
0.06247275 0.020507045 0.07083903 -0.01060515 -5.474789 -5.9994845 -8.274334 -5.361095
-8.106137 -8.972837 -7.132672 -7.4221187 -7.9675727 -4.769799 -6.330005 -7.238239
-5.676424 -6.54588 -2.3234818 -3.6272247 -4.302366 -1.0105991 0.04474429 -0.36555228
-0.19355355 0.1519853 0.87359893 -0.404306 0.61588687 0.67956305 1.1375788 -0.74030477
0.3006998 0.22974548 -0.13111262 0.04693216 -0.3009375 0.3631205 -0.034713577 -2.7548654
-0.32661706 -0.05523516 0.0652846 -1.033063 -0.15045036 0.19851287 0.0421258 0.07594243
-0.001185522 -0.048439443 -0.12447846 0.096656375 0.15669498 -0.045776483 0.3598909 0.10794676
-0.062615484 -0.11990785 0.038389947 -3.242416 0.11154027 -0.016666729 0.05087504 0.031687267
0.073457874 0.05297954 -0.22257948 -0.08634645 0.034562882 0.10126996 0.23437707 -0.08018305
0.09288168 -0.004929169 0.090017386 -0.021428524 0.04326577 -0.06022732 -0.07602682 0.1250724
0.019851485 0.24383855 -0.038676884 -0.12545879 0.17402434 -7.876954 0.18281497 -0.0582618
0.069487795 0.04956519 0.05338015 0.034997094 0.18884692 -0.041228645 0.32529885 0.12166733
0.6317749 0.06563815 0.4045827 0.42414457 0.27150548 0.1734777 -0.26839563 0.53737915

layers.0.bias f4 [128]
00000000: b065 7e3d 3b8b 9f3d 1b1b 853e 450b 2f3e
00000010: 08aa c63d 48b3 4b3e 0f36 103e 444c ad3e
00000020: d550 593e b597 223e d371 b63e a27e 863d
00000030: b896 8d3e d42e 263e 946c 533e fc91 833e
00000040: 9eaf cd3d 6cac 753e 2854 1c3e 5869 8a3e
00000050: e0b0 af3d 7119 213e 985a c53d 10db 1e3e
00000060: 68e9 103e 04cc 323e 35bf d93d 62c3 0f3e
00000070: 0ab8 d33d c426 793e e0ff a63d 2962 9c3e
00000080: 5a46 c73d 965f 063e 2408 273e 62d3 7f3e
00000090: f508 ea3d 6c2b 303e ccd2 d23d 8fbb df3d
000000a0: d985 733e 472c 2a3e 30bd 093e dded 353e
000000b0: 9ed5 a03e cc85 aa3e 96fc 2b3e 951a 813e
000000c0: be5f f63d 7879 3c3e 12d8 ad3e 8882 1b3e
000000d0: f5da c03d 3751 b53d 19a9 ba3d 1cf7 b23e
000000e0: 9de8 b33d a72e a33e 91e0 963d c031 863e
000000f0: 1573 d33e 02b5 ce3d e3ac 0b3e ca22 f73d
00000100: 2852 2c3e fcc5 b33e 2abb 8b3e 4629 9b3d
00000110: 8263 c53d 8d06 de3e 84bc 823e 22dc 4c3e
00000120: 33aa ca3d 16a3 863e e53e e43d 5cbb 7d3e
00000130: 3da2 703e ca81 b83e c036 553e 0258 e63d
00000140: 2173 aa3d 3ef2 e63d aba2 8d3e edb2 983d
00000150: 29ef 0e3e 8de2 0c3e a176 5b3e efe7 2c3e
00000160: f7bf 473e 5ef3 b23e af3e e43e 2909 a83d
00000170: dc88 6a3e dbcf 723e b6a1 af3d 25a5 c23e
00000180: fc72 df3d 0031 473e 6afb d83d 0c2e a53d
00000190: 8adc b53d 06d9 933d 6bc0 0e3e 1d0a 863e
000001a0: 8aff 833e 087c 103e ea75 273e 9df0 a33d
000001b0: 4dfe 163e c942 b03d c8dd e73d fe07 163d
000001c0: a6bb 543e 4715 b23e 881d 383e aa1c e13e
000001d0: 1474 833d 1140 953e 70c5 ad3e fbdc 2e3e
000001e0: 561e 833e af79 753e 3622 9b3d 1314 913e
000001f0: 340d 803e fa15 883e c587 3c3e 2dad 903d
0.062108696 0.07790228 0.25997242 0.17094143 0.097004 0.19892609 0.14083122 0.3384725
0.21222241 0.15878184 0.35633716 0.06567122 0.27654052 0.16228801 0.20646888 0.25697315
0.10043262 0.23991555 0.15266478 0.27033496 0.08578658 0.15732361 0.0963642 0.15513253
0.14151537 0.17460638 0.10632173 0.14039376 0.10337837 0.24331194 0.08154273 0.3054364
0.09730215 0.131224 0.16311699 0.2498298 0.1142749 0.17204064 0.102941126 0.10924446
0.23781528 0.16618453 0.13451076 0.17766519 0.31412977 0.33305204 0.16795573 0.25215593
0.1202998 0.18405712 0.3395391 0.15186512 0.09416763 0.08853381 0.09114284 0.34954154
0.08784602 0.3187153 0.073670514 0.2620983 0.41298738 0.10093118 0.1364017 0.12067182
0.16828215 0.35111988 0.27291232 0.07576232 0.0963812 0.43364373 0.2553445 0.20005849
0.09895744 0.262963 0.11144809 0.24778503 0.23499389 0.3603652 0.20821667 0.11247255
0.0832274 0.11276673 0.27663168 0.074560024 0.1395842 0.13758297 0.21431972 0.1688535
0.19506823 0.349513 0.44579074 0.08204872 0.2290377 0.23712103 0.08575766 0.3801662
0.109106034 0.19452286 0.105948284 0.08065423 0.08879955 0.07219128 0.13940589 0.2617959
0.25780898 0.14109814 0.16353574 0.08004878 0.14745446 0.08606488 0.11321598 0.036628716
0.20774707 0.34781858 0.17980015 0.4396718 0.064186245 0.2915044 0.33939695 0.17076485
0.25609082 0.239722 0.075748846 0.28335628 0.25010073 0.26579267 0.18411167 0.07064281

layers.2.weight f4 [128, 128]
00000000: 0d48 7b3f f816 cbbe 3730 283e ea41 1cbf
00000010: fdd0 e03e 48e8 16bd e2d4 c23e 0f0a 1abf
00000020: 45d8 6ebe ff4b ce3e dce3 afbe fdae d2bd
00000030: 1b0c dfbe dfe0 903f fc12 d4be 7924 7d3e
00000040: 25b7 3b3e bf50 9f3e 55ea 25be edc8 c3be
00000050: 3a72 55bf 561b 9cbe 3692 cebf fcba 52be
00000060: d3c6 18be a868 cabe fe1b 7e3e b406 1040
00000070: 7b3d d9bf 48c5 48be 86f6 0840 0904 0fbf
00000080: f3ab cfbf fcef 8e3f ee7a f23f cfb9 15bf
00000090: f1e9 ea3e 76f4 553f 39ae 4cbf 285b 9dbe
000000a0: 23b9 7dbe 9992 78bf 32c8 58bd aa9b 3d3f
000000b0: 25f6 d63e 304f 353d cb82 1abf 2bfe 3cbe
000000c0: e1f4 0fbe cdea e0bd b9af aa3e 14aa 01bf
000000d0: c88b a13d 4d7f f43e 0190 7bbf 0e02 aabe
000000e0: f7ff 1e3f 065f efbe f2a9 e0be 82c2 b0be
000000f0: 5c4c e53e 1a01 963f 9354 76be 15c2 203d
00000100: a1af 883f af92 783f 5802 163f 2645 b53f
00000110: 6d54 cebe b4d2 2b3f 3b34 a63d fca4 05be
00000120: c8bd 583f dd58 2cbe 48c5 4d3f e9dc d33d
00000130: 1de3 b63e 36eb 233f 540b c23e b573 d33e
00000140: b786 4940 069b 203f 26dd 50be 6615 fe3e
00000150: cda1 fcbe 3ae7 b2be 08b0 0b3f 7695 8bbe
00000160: 6287 90bd da92 7fbf 1089 d93e c385 9dbf
00000170: d46c 2f3f 94c4 2ebe c637 81be ea42 4cbf
00000180: 877f 7b3e 17bb 68be 9fff b9bf 4cfb 69bd
00000190: 1468 9bbf 4f81 1bbf 1eb7 623f eda6 81bf
000001a0: 473c 2cbe 21db 503d 9dc5 253f ab38 b53f
000001b0: bc64 843e 1c79 6cbe 1243 d3be 7671 a53e
000001c0: 06ee 9c3f 0d06 29bf 592e aabe 1e63 15be
000001d0: ab6e a0bf 6159 223f 0f6e 2abf 1f45 13bf
000001e0: 057d 003f c01d c73e 2416 ee3f 7979 b9bd
000001f0: eb9c bf3d 43fc ebbe bb76 97be 6771 1240
00000200: 0617 dd3f 1d51 aa3e 2e00 143f 2068 74be
00000210: 08f1 d83c e36f d63d f447 2a3f 4c48 0dbe
00000220: 48f0 a43e c92e 503f 9a9c 953e b7ae c53e
00000230: 851d 993e 6ff2 a53e cc47 0e3e 1389 c4be
00000240: 666d e13c 558d 343f 8f73 8abe 3e45 54be
00000250: 513a 8f3f 7400 303c 53aa 843d 3f4c 143a
00000260: e508 27bd 84d5 913f ae9c 97bf 81c6 07bf
00000270: 3e4d 8e3f 0041 933e 5a86 65bf f81e ac3e
00000280: 7a5f 773f d808 62be 0fb6 1f3f c9e7 da3e
00000290: 89f5 743d 88ae 783f be6b 21bf 6a6a dc3f
000002a0: a962 0a3f b2e3 2dbd 7c89 84bf 7654 afbe
000002b0: 479d 0f3f 8660 62be f110 553c 2f0e e53d
000002c0: 3444 2c3f b82c 3bbe f33b 2dbe 93ce 143f
000002d0: 07bc 72be acf9 983d 8868 09c0 5034 983d
000002e0: 7f18 f4bd f09a bcbe b009 a83e f498 303f
000002f0: 686b 893d 3a99 acbf 2278 04bf e5b4 afbd
00000300: c509 833f 400b 6cbe a973 96be ccbf f93d
00000310: 97f8 7fbe a2f1 c7bd a778 773f 2e36 2f3e
00000320: 397b db3f 3812 083f bd57 953e 7490 7abe
00000330: 45af 133f 78e2 cc3e eae5 073f 1e75 cbbf
00000340: 9fc8 033e 3d17 a9bf d6dd 01bf a48e 94bf
00000350: bfa9 0cbf dd96 47bf c485 e9be 7331 f1bc
00000360: b4d0 553e 47ea dfbe b696 70be f464 103f
00000370: b901 43bd a9a2 113f 09e7 a03e 0b49 993c
00000380: b54d 82bd d3c2 a3be 01a0 3dbf ab90 c5bb
00000390: 7232 a93f ad01 e73d 66c3 3dbf bfba 8abf
000003a0: 473a 22bd 5ac3 6c3f 5801 2dbe 4b21 d33d
000003b0: 6d44 4e3f 535c 9d3d 9fae ddbe 9acb 053f
000003c0: 4c95 c43e 9d6a f5be ee2c 46bd f5da c73e
000003d0: 2a2c 7abe 947f 593e 4e17 22bf 8e09 e03e
000003e0: fddb f33d 71bb b93d 896a 263f 29d4 99be
000003f0: f55c 0fbe 77d2 3bbe 52d2 033d f8b8 07c0
0.98156816 -0.3966596 0.16424643 -0.61038077 0.43909445 -0.036842614 0.38053042 -0.601716
-0.23324688 0.40292355 -0.3435353 -0.102872826 -0.43563923 1.1318625 -0.41420734 0.24720944
0.18331583 0.31116292 -0.16202672 -0.38239232 -0.8337742 -0.30489606 -1.613837 -0.20579141
-0.14919595 -0.3953297 0.24815366 2.2504091 -1.6971887 -0.19606507 2.1400466 -0.5586553
-1.622435 1.1166987 1.8943765 -0.58486646 0.45881608 0.8357614 -0.7995334 -0.3073361
-0.24777655 -0.9709869 -0.052925296 0.7406565 0.41984668 0.044264972 -0.60355824 -0.18456332
-0.14058258 -0.10982285 0.3333719 -0.50650144 0.07887989 0.47753373 -0.9826661 -0.33204693
0.6210932 -0.46752185 -0.43879658 -0.34523398 0.4478482 1.1719086 -0.240557 0.03924759
1.0678598 0.9709882 0.58597326 1.4161727 -0.40298787 0.6711838 0.08115431 -0.13051218
0.84664583 -0.16830774 0.8037915 0.1034487 0.3572015 0.6403078 0.37899268 0.41299215
3.1488473 0.62736547 -0.20396861 0.496257 -0.49342194 -0.34942037 0.5456548 -0.27262467
-0.07057072 -0.9983345 0.42487383 -1.2306446 0.68525434 -0.17067176 -0.25237864 -0.797896
0.24560367 -0.22727619 -1.4531134 -0.05712442 -1.2141137 -0.60744184 0.88560665 -1.0129067
-0.16819869 0.050990228 0.6475466 1.4157919 0.25858104 -0.23093075 -0.41262108 0.32313126
1.2260139 -0.6602486 -0.33238485 -0.14588591 -1.2533773 0.6341763 -0.66574186 -0.57527345
0.50190765 0.38889885 1.8600507 -0.09056372 0.093561016 -0.46090898 -0.29582772 2.2881715
1.7272651 0.3326501 0.57812774 -0.23867846 0.02648212 0.104705594 0.6651604 -0.1379711
0.3221457 0.8132139 0.2922104 0.3860986 0.29905334 0.32411525 0.13894576 -0.3838583
0.027517986 0.70528156 -0.2704129 -0.20729539 1.1189672 0.0107422955 0.06477799 0.00056571135
-0.040779967 1.1393285 -1.184469 -0.5303727 1.1117322 0.2876053 -0.8965813 0.33617377
0.9663006 -0.22073686 0.62387174 0.42754963 0.059804473 0.97141314 -0.63055027 1.7219975
0.54056793 -0.042453475 -1.0354457 -0.34244126 0.5609936 -0.22107133 0.013004527 0.11184346
0.6729157 -0.18278778 -0.169174 0.5812771 -0.23704539 0.07469496 -2.147005 0.07431853
-0.11918735 -0.36836958 0.3281989 0.6898339 0.06709939 -1.3484261 -0.5174581 -0.08579425
1.0237356 -0.23051167 -0.29385117 0.121947855 -0.24997173 -0.09762885 0.96668476 0.17110512
1.714698 0.531528 0.29168501 -0.24469167 0.57689315 0.40016532 0.53085196 -1.5895116
0.128695 -1.3210217 -0.5072912 -1.160603 -0.5494651 -0.77964574 -0.45609868 -0.029442525
0.20880395 -0.43733427 -0.23494992 0.5640404 -0.047609065 0.56888825 0.31426266 0.018711587
-0.06362478 -0.31984577 -0.7407227 -0.0060292087 1.321852 0.112796165 -0.7412628 -1.083824
-0.03960636 0.9248558 -0.16895044 0.103090845 0.8057316 0.07683625 -0.43297288 0.52263796
0.38395154 -0.47932902 -0.048382692 0.39034238 -0.2443091 0.21240073 -0.6331681 0.4375729
0.11907194 0.09068955 0.6500631 -0.30044678 -0.14000304 -0.18342005 0.032183 -2.1206646

layers.2.bias f4 [128]
00000000: a100 b23e dda6 0c3e fb57 0c3e 4050 043f
00000010: b87a 4c3e a34c 893e ca68 7e3e 3674 6d3f
00000020: 920c b93d 9daa 043f 1ed3 d63e 3402 ac3e
00000030: 6390 5b3e 6818 903d 42a3 423f 343d 3b3e
00000040: 7875 153f 1084 3b3e d382 393e c9d1 9f3e
00000050: 939e c7bd 9e58 ba3e a010 053e 8925 993e
00000060: 1e99 113f 40ed 84bd db31 443e 8dcb 763e
00000070: ce93 b83e eb29 833e 5901 823e 6fb5 ed3e
00000080: 2ca9 1c3f a193 b83e f317 aa3e 7b78 f23e
00000090: e5d4 6c3e d9f0 503e 0a47 f83d f923 f83e
000000a0: 3321 3c3d 4e43 2a3f d160 37bc c0b6 193e
000000b0: 1060 37be 4cd7 9a3e 701b 47bf 540a c13d
000000c0: a08a 133e c65a 813e ad3e 4c3e b4dd 6f3b
000000d0: e53a 8cbc 0358 1d3f cc49 c73d 3edf 93bd
000000e0: b83b 563e c78b e8bc 446b 4a3d 4468 8d3e
000000f0: 95ed e23e 7ce3 f03e 65dc fa3e e607 533e
00000100: 82c1 c53e 202b e33e 2349 903e bfdc b23c
00000110: db19 e33e 847f 443f 0baf c53e defe aebd
00000120: b9df 093f b538 4f3e 2244 863c 6ab1 3b3f
00000130: 2024 a43e 5e53 07be 0ecb fd3d 89bc d93e
00000140: e1c2 0b3f d6e2 3b3e fc35 ab3d 8298 dc3e
00000150: 0495 2d3f 5c44 23be 8242 3e3e b70e 013e
00000160: 616f bcbe be42 e03d 35b4 883e 101f 753e
00000170: 02db 183e 9aa7 7a3e 306c 50bd b466 b63e
00000180: 6ee3 803e 31fd 853e 2eca a73e c064 b3bd
00000190: 2049 313e ccdc 2d3e a8a4 0c3e e885 103f
000001a0: 42bc e23d eef3 413e 3630 343e 913f 1f3d
000001b0: fc53 f43d 0724 e03e d9c7 1b3e 8ba0 1b3e
000001c0: 658d 173f 6825 1f3e 9f81 cabc d0de e73e
000001d0: 95e3 9c3e 89be b73e 5b58 c3bc c2a1 db3e
000001e0: 03dd 87bc 0a31 933e db24 143f 8ff3 f93e
000001f0: 81a2 183c 1aef 9c3d 4e22 273f 1304 f13d
0.34766105 0.13735528 0.13705437 0.5168495 0.19968688 0.26816282 0.24844661 0.9275545
0.09035601 0.51822835 0.41957945 0.3359543 0.21441798 0.07035905 0.7603036 0.18285066
0.5838237 0.18312097 0.18116312 0.3121474 -0.097470425 0.36395735 0.12994623 0.2991145
0.56874263 -0.06490564 0.19159643 0.24101086 0.36050266 0.25617918 0.25391653 0.46427485
0.61195636 0.36050132 0.33221397 0.47357544 0.23128088 0.20404376 0.121229246 0.48464945
0.0459301 0.6650895 -0.011192516 0.1501112 -0.17907739 0.30242383 -0.7777624 0.09425798
0.1440835 0.25264567 0.19945784 0.0036600651 -0.017117927 0.6146242 0.097308725 -0.072203144
0.20921218 -0.028386964 0.049418703 0.2761861 0.44321886 0.47048557 0.48996273 0.20608482
0.38624197 0.4436884 0.281808 0.021833776 0.44355664 0.76757073 0.3861011 -0.08544706
0.53857 0.20236476 0.01638991 0.7331759 0.3205881 -0.13215396 0.12392245 0.42526653
0.54594237 0.1834825 0.08359906 0.43085104 0.67805505 -0.15944046 0.18580058 0.1260327
-0.36803725 0.1095023 0.26699987 0.2393763 0.14927295 0.24477997 -0.050884426 0.3562523
0.25173515 0.26169732 0.32771438 -0.08759451 0.17313051 0.16978759 0.13734686 0.56454325
0.110710636 0.18940708 0.17596516 0.03887898 0.11930081 0.43777487 0.15212955 0.15197961
0.59200126 0.15541613 -0.024720011 0.4528718 0.3064238 0.35887554 -0.023845842 0.4289685
-0.016584879 0.2874835 0.57868737 0.48818633 0.009316088 0.076627925 0.6528672 0.11768355

layers.4.weight f4 [88, 128]
00000000: 15c7 cf3d be71 873e 766f b8be 7d9c bbbf
00000010: 82f3 953e fee2 81bf ac0a adbc 346d 45bf
00000020: 4c56 09bf b5a6 b7bf 8948 5e3d 9e78 3abf
00000030: 09c3 eebe 1494 4bbd 70b0 2fbf ee24 2cbf
00000040: 02f4 7fbf 35ad 76be 0bdb 67be 1efb 5abe
00000050: 706f 91bd f8bb 013d be43 b53e 08d5 aa3e
00000060: c15f a4bc 1ea9 573e f470 5fbf 5e0f 15bf
00000070: 6dba a3be cf1b 5f3e a12c b83e 3baa a33c
00000080: 02ac 9ebd a418 823d b5c9 103f 1c50 50be
00000090: a0ea 1fbf 89f3 463b 1b53 2e3e 89bb d33d
000000a0: 846c 023f 7403 b9be 5fc7 b13e e20d 00be
000000b0: 5ef5 2f3e cfae 783e 5171 cdbd b8e5 63bc
000000c0: acc9 613e 64f9 6b3d 5d33 4c3e d424 cb3d
000000d0: bda0 db3d bd70 d5be 2326 acbe 11ad 76be
000000e0: dff6 f43e b7a9 883e 9842 783d a4b8 c73d
000000f0: 1a97 8e3e dce6 eb3e d7d8 63bf bb6d 58be
00000100: 61f6 e8be 6fa7 14be 60b6 83be 15c8 0d3f
00000110: 3528 06bf e64e 9c3c 67a6 d9be d0d2 793d
00000120: 793f 903e 940a b9bd fb70 12be f785 29bd
00000130: dfb4 a33d 84c6 853e 87d6 d4be 1bac dbbe
00000140: 90d8 b9be 0d7c d23e 94cc 83bd 6618 883d
00000150: 80c8 4abf 6e7b 2abf ba33 bcbe 1f55 f13d
00000160: 92be 8dbd f8e2 603e d766 06bf d4f0 e8bd
00000170: bfd3 28bf 8be8 b83e 7e59 c53e d5d9 b2bc
00000180: 7a01 d53c 40db 1bbe 852c 1fbf 6c57 73bd
00000190: 299e 013f 2361 993e c218 333e 95a0 86be
000001a0: efa7 853e 806f b33d 8071 603e ef72 61be
000001b0: ab92 81be 75e9 5c3d 9921 2f3e 3c94 df3d
000001c0: 7c23 9ebd b714 08bf 1039 8b3d d4c7 6ebe
000001d0: 4804 b23d 9f50 8dbe 11cb a33d 9068 c3bd
000001e0: a79d 9dbe 2ffd dbbc 4b67 0abf a630 10bf
000001f0: d6a2 b53d 486c c43d 9da1 bdbc d8f6 cabe
00000200: a327 7d3e f1ce 423e ec23 c0be 166e 3ebf
00000210: e091 0dbf acb0 b8bf 00ba 5fbf 95c6 40bf
00000220: 55ac 8a3c 7113 b4bf 0b3a b13e 3fb3 96be
00000230: 5d35 023e c34c d7bd 2eb7 6cbd 8a7d 913d
00000240: 3f95 3ebd f538 da3d 4518 03bf 6727 05bf
00000250: e464 00be 9ebc 373e 72d8 fcbd 054c febe
00000260: bca6 1fbf b17c cdbd 99fc 1f3f 3dae e8be
00000270: e5bf 9dbe 2a42 293f d60c fd3e 8e4b 853e
00000280: d20a 27bf e6d8 75bd 273d 95bf d1ec 8dbf
00000290: 1f3e c0bc 8630 3cbf 4fad 8a3e cb99 1f3e
000002a0: 8536 a63e 898f d3be fbab d13e f9c4 1c3e
000002b0: 9e82 8cbd 8f84 dc3e 5808 9a3c c94f 74bf
000002c0: ff05 623f 006e 613b 0ade 253f 70d3 dbbd
000002d0: ba46 7f3e 8ddf e7be 861b 043f fda5 28be
000002e0: fd73 19bf 9352 133e e49e acbe 4976 36bf
000002f0: 5b29 173e 5841 b63e 47a8 88bf a388 92be
00000300: 68e0 69be ab43 0b3f 0993 5f3e 7c77 b43d
00000310: fcb3 85bf dab1 bd3e d64d 9bbf 7dc8 053e
00000320: 221e 5fbe 02bc b6bd 6afd 3ebe 9257 99be
00000330: eb56 ab3e f3a2 98be ffb0 bcbe 0010 f8be
00000340: 8ae9 f03c 3b38 14bf d0f2 48b8 ed72 9abd
00000350: 1839 88bf 67d7 cebe 5471 7cbd eaf9 e43e
00000360: a495 9fbd 1830 803f 14ed 0f3e 4828 6bbe
00000370: ddf6 c5bf a4e0 6ebd 2a9f 85bd 7910 a9be
00000380: 6d3e 463d 213e afbe 68ee f43e 7f3f e83b
00000390: a8f0 7cbd 6596 9dbe efb1 0ebf f277 d93e
000003a0: a8aa e83d d6b8 833d 0bf6 4ebe eaf8 dd3d
000003b0: 93ad b63e 1198 8b3e 70c1 ce3e 9d2d e9bc
000003c0: b6e8 7c3c d764 0bbf fce3 ab3e 6057 2cbe
000003d0: 026b b0be e170 00bf ef8c 383d 78b9 ba3e
000003e0: 7419 bdbe 3089 5d3e 3d5c aebf 98d8 eabf
000003f0: d500 debd afcc 9abf 04b3 7c3e d410 0f3e
0.10145394 0.26453966 -0.36022538 -1.4657131 0.29287344 -1.0147398 -0.021123253 -0.77119756
-0.53647304 -1.434775 0.054268394 -0.728403 -0.46633175 -0.049701765 -0.686286 -0.6724385
-0.999817 -0.2408951 -0.22642152 -0.21384856 -0.07101333 0.0316734 0.35403246 0.33365655
-0.02006519 0.21060607 -0.8728173 -0.58226573 -0.3197817 0.21787952 0.3597155 0.019978633
-0.07747652 0.06352356 0.5655778 -0.2034306 -0.62467384 0.003035756 0.1702389 0.10338504
0.5094683 -0.36135447 0.3472242 -0.12505296 0.17183444 0.24285434 -0.10031379 -0.01390975
0.22049588 0.057610884 0.19941469 0.09919134 0.10724018 -0.41687575 -0.33622846 -0.24089457
0.47844598 0.26691982 0.060610384 0.09752014 0.27849656 0.4607457 -0.89002746 -0.21135609
-0.45500472 -0.14516996 -0.2572508 0.55383426 -0.524051 0.01908059 -0.42509767 0.060992062
0.28173426 -0.09035221 -0.14300911 -0.041387524 0.07993483 0.26128018 -0.4156992 -0.42904744
-0.36298037 0.41110268 -0.064355046 0.06645279 -0.7921219 -0.6659459 -0.36758214 0.11783814
-0.06921114 0.21961582 -0.5250067 -0.11374059 -0.659481 0.36114916 0.3854484 -0.021832386
0.02600168 -0.15220356 -0.62177306 -0.059409544 0.5063196 0.29956922 0.17489913 -0.2629439
0.26104686 0.08761501 0.21918297 -0.220165 -0.2530721 0.05393358 0.1710266 0.10916945
-0.07721612 -0.5315661 0.06797993 -0.23318416 0.08692223 -0.27600572 0.07997716 -0.09541428
-0.30784342 -0.026854126 -0.5406386 -0.5632423 0.08868949 0.095909655 -0.023148352 -0.39641452
0.24722151 0.19024254 -0.37527406 -0.7438673 -0.5530071 -1.4428916 -0.8739319 -0.7530301
0.016927877 -1.4068433 0.34614596 -0.2943363 0.12715669 -0.10512688 -0.05779188 0.07104023
-0.04652905 0.10655395 -0.5120891 -0.5201325 -0.12538487 0.17943045 -0.12345971 -0.49667373
-0.6236379 -0.100335486 0.6249481 -0.45445433 -0.30810466 0.66116583 0.49423856 0.26034206
-0.65250885 -0.060021304 -1.1659287 -1.1087896 -0.023467122 -0.7351154 0.2708535 0.15586011
0.3246347 -0.41320446 0.40951523 0.15309514 -0.06860851 0.43069884 0.018802807 -0.9543424
0.882904 0.003439784 0.6479193 -0.10733688 0.24929324 -0.45287743 0.516045 -0.1646957
-0.5994261 0.14386968 -0.33714974 -0.7127424 0.1476187 0.35596728 -1.0676354 -0.2861987
-0.2283951 0.5440013 0.21833433 0.08811852 -1.0445552 0.37049752 -1.2133129 0.13064761
-0.21788839 -0.089225784 -0.18651357 -0.29949623 0.3346475 -0.2981182 -0.36853787 -0.48449707
0.029408235 -0.578983 -4.7909853e-05 -0.075414516 -1.0642424 -0.40398714 -0.061631516 0.4472192
-0.077922136 1.0014677 0.14055282 -0.22964585 -1.5465962 -0.058319703 -0.06524499 -0.3302038
0.048399378 -0.34227088 0.4783814 0.0070876474 -0.061752945 -0.30778804 -0.55740255 0.42474324
0.11360675 0.06431739 -0.20211045 0.10838492 0.35679302 0.27264455 0.40381956 -0.028464133
0.015436342 -0.54450744 0.33572376 -0.16830206 -0.3445664 -0.5017224 0.04505628 0.36469626
-0.36933482 0.21634364 -1.3621899 -1.8347349 -0.108400024 -1.2093714 0.24677664 0.13971263

layers.4.bias f4 [88]
00000000: 9e93 93bd a48e c1bd 6e73 c13d 0979 a43c
00000010: bf45 0f3d 1d20 753c 3a94 bd3d 1ceb ffbd
00000020: 072c 5fbc ae0b 313d dca1 093d 48ff 92bc
00000030: 99ab a7bd 01ed 56bd 3b38 b1be 5286 d5bd
00000040: a412 f8bd c697 71be 3f04 a8bd 1cda 24be
00000050: 7a9e 59be aa73 1d3d daee 8abc 45c6 383d
00000060: ab6b 61be ba22 91bd 8509 e7bd 8281 d0bd
00000070: 6eac cebe 1538 11be a8ec 93be 9f5f 49bd
00000080: 36dc 27be 5a0e 19bd 9adc 363d 712e cfbd
00000090: 1083 70be da6e f9bd 263e 8dbe 290f 56be
000000a0: ea7d a7bd 276b 67be 87a4 77be 3074 6cbe
000000b0: 6a82 d5bc 55e6 3ebe 9844 b2be 59b0 a3bd
000000c0: 8a4d 28be 1df6 29be 233b ccbe b8be 123d
000000d0: 2f77 613c 4f7a 66be 61d0 773d 8772 57be
000000e0: f82f 9bbe 6a1e 033e 324d 93be 5d8e 0fbf
000000f0: 64e3 55be 327e bbbe c03b 51bd 203d ebbd
00000100: 1594 643d c31e fdbd e5f4 11be df2e 2abe
00000110: 6523 1e3e 4d98 33be a67e 6fbe c473 a4be
00000120: 3d00 febd 012a 6ebe f4b2 9dbe 2cf9 33be
00000130: 609f c0bd 5c75 d1be 447c 203e 90c9 433d
00000140: 8025 10bf 6020 383e 6cd5 4b3d 270c 943d
00000150: fd23 2e3d 1793 d2bd 9832 10be 0bfa a6bd
-0.0720589 -0.09451035 0.094458446 0.020077245 0.034978624 0.01496127 0.092567876 -0.124960154
-0.013621337 0.04322403 0.033601627 -0.017943993 -0.081870265 -0.05247212 -0.34613213 -0.1042601
-0.121129304 -0.23593053 -0.08203935 -0.16098827 -0.2125186 0.038440384 -0.016959596 0.04511096
-0.22013728 -0.07086702 -0.112811126 -0.10180952 -0.40365928 -0.1418155 -0.28891492 -0.049163457
-0.16392598 -0.037367202 0.044643976 -0.1011628 -0.23487496 -0.121793464 -0.27586478 -0.2090422
-0.08178313 -0.22599469 -0.24183856 -0.23091197 -0.026063163 -0.18642552 -0.34817958 -0.0799262
-0.16435829 -0.16597791 -0.39888868 0.035826415 0.013761326 -0.22507595 0.06050146 -0.21039782
-0.30310035 0.12804571 -0.28769833 -0.56076604 -0.20887524 -0.36619717 -0.051082373 -0.11486268
0.055805285 -0.12359383 -0.14253576 -0.16619442 0.1544319 -0.17538567 -0.23388156 -0.32119572
-0.12402389 -0.2325821 -0.30800593 -0.1757552 -0.09405398 -0.4090985 0.15672404 0.047799647
-0.5630722 0.179811 0.04976408 0.072288804 0.04251479 -0.102819614 -0.140818 -0.08153161
