checkpoints/TransductionFC_300000_19-01-2023-16-12-53.pth (torch, 159511 bytes, 6 tensors)

layers.0.weight f4 [128, 89]
0.063837446 -0.07298568 -0.0054987483 -0.039473455 0.1443674 -0.08359358 -0.15328117 0.07030618
0.013302346 0.1586361 -0.13052969 -0.18222837 0.21559863 0.037835147 -0.061361212 0.049762525
-0.10163577 -0.21124984 0.31672817 -0.07226826 -0.03553967 -0.04099302 0.25638565 -0.26953408
-0.11690968 0.4176844 -0.4319158 0.12180247 0.32920733 -0.47987399 0.23051323 0.007929031
-0.09876847 0.0669502 -0.054537944 0.025305167 -0.06794664 0.26389223 -0.44496068 0.1824064
-0.020479064 0.020656183 -0.059137043 -0.013332266 0.07490046 -0.11419074 0.053960484 -0.067646496
0.081256144 -0.07240147 -0.02291041 -0.011979786 -0.040575445 -0.074391745 -0.053962458 -0.04472257
-0.23547077 -13.397516 -0.37398925 -0.09616173 -0.027989129 -0.026754657 -0.023299646 -0.095210426
0.06624006 -0.10899878 -0.03490394 -0.028173609 -0.037205752 -0.025129635 -0.07859127 -0.020521712
0.07977158 -0.12706278 -0.07030035 -0.1277741 -8.7431965 -0.046119153 0.07594834 -0.09172359
-0.3043525 -0.10718194 0.20528117 -1.7201616 0.7697352 -0.22346781 0.553441 -0.12704313
-0.034820665 -0.068335004 0.09525944 -0.024900872 -0.09125994 -0.16006717 -0.029712832 -0.25705007
-0.010246206 -0.21297921 0.1922282 0.8329898 0.5125073 -0.18155915 -0.1626281 -0.042693067
0.03991443 -0.14740546 0.3457784 -0.3402999 -0.5564477 -0.28439307 -0.03633126 0.480835
0.31239286 0.075130925 -0.13874528 -0.2116552 -0.2364606 -0.34762275 0.56091446 0.22600898
-0.3016896 -0.18093742 -0.051010728 0.083957784 0.1957157 -0.11396267 -0.22740173 -0.26207754
0.3868766 -0.205 0.18633816 -0.09165674 0.08584553 -0.24975216 -0.22163728 0.16455163
0.19283418 -0.27436635 -0.052609388 -0.14861374 0.08701434 0.13451725 0.28600135 -0.5381778
0.2273724 -0.28936774 -0.02566672 0.16770613 -0.15631491 -0.06632009 0.089789204 -0.2865201
0.49472272 0.05699003 0.05190875 -0.28961834 -0.39693627 -1.426023 -0.38845426 0.7563087
-6.930241 -0.43641058 -0.8954204 -0.13557862 -0.24670623 -0.722574 0.022817407 -1.1568393
-0.46471664 -2.031888 -1.0327382 2.7398758 -1.1752486 -1.4225788 -1.2767303 1.582528
-5.8744855 -0.21794462 -0.08956988 -0.15114452 0.00063331466 -0.092011064 0.03704142 -0.11070204
-0.30830082 0.15689543 0.16899733 0.18052024 -0.07485339 0.47995868 0.45078382 0.12023998
-0.16908854 -0.45826107 -0.021115044 -0.06251647 0.26278797 -0.109789334 0.30912575 0.047105316
-0.3583607 0.11080149 0.34494603 0.18498094 -0.5085769 0.18879986 0.2619036 -0.5200532
-0.18012615 0.514548 0.6671254 -0.27630267 -1.26946 -0.47068363 0.41765004 0.2507224
0.54604995 -0.54364514 0.03410747 -0.005287978 -0.13245544 0.08732769 0.05819281 -0.07304643
0.11665295 -0.16434546 -0.03171104 0.06396634 0.13021167 -0.14657839 0.19090258 -0.20047475
-0.00695069 0.22478591 -0.04209057 0.10936674 0.23377584 -0.07492929 0.048617482 -0.0992074
0.17464896 -0.108623 0.037359606 0.018390695 0.04291353 -0.123822495 -0.13898721 0.4003931
0.034298807 0.29479894 -0.37273377 -0.5920859 0.41022786 0.44747707 1.0214745 0.3977738
00000000: 35bd 823d 8479 95bd d82e b4bb ebae 21bd
00000010: 0cd5 133e 1c33 abbd bdf5 1cbe b0fc 8f3d
00000020: 15f2 593c 8071 223e 93a9 05be 139a 3abe
00000030: e3c5 5c3e 07f9 1a3d e555 7bbd cad3 4b3d
00000040: 6a26 d0bd e151 58be 322a a23e 6201 94bd
00000050: 0c92 11bd 4ce8 27bd fb44 833e 5f00 8abe
00000060: 586e efbd bbda d53e 1124 ddbe 9373 f93d
00000070: dd8d a83e 0bb2 f5be a90b 6c3e c4e8 013c
00000080: 2047 cabd 301d 893d 2e63 5fbd c84c cf3c
00000090: 9c27 8bbd e21c 873e e3d1 e3be bec8 3a3e
000000a0: b6c3 a7bc 2837 a93c af39 72bd 946f 5abc
000000b0: 6a65 993d d6dc e9bd ab05 5d3d 3f8a 8abd
000000c0: 9f69 a63d 3947 94bd 9dae bbbc dd46 44bc
000000d0: 7032 26bd b35a 98bd bd07 5dbd 032f 37bd
000000e0: 401f 71be 3a5c 56c1 857b bfbe 71f0 c4bd
000000f0: 7549 e5bc 952c dbbc e6de bebc affd c2bd
00000100: dea8 873d c13a dfbd 6ff7 0ebd 57cc e6bc
00000110: 0f65 18bd aadc cdbc 76f4 a0bd 261d a8bc
00000120: 485f a33d bf1c 02be a1f9 8fbd 37d7 02be
00000130: 22e4 0bc1 70e7 3cbd ce8a 9b3d 94d9 bbbd
00000140: 17d4 9bbe 3482 dbbd 3a35 523e 412e dcbf
00000150: 5e0d 453f bfd4 64be 4fae 0d3f 9817 02be
00000160: 1da0 0ebd 39f3 8bbd 6217 c33d eafc cbbc
00000170: 7ee6 babd a6e8 23be 5368 f3bc 119c 83be
00000180: b4df 27bc 3917 5abe 78d7 443e d23e 553f
00000190: ae33 033f a4ea 39be fb87 26be edde 2ebd
000001a0: 507d 233d 75f1 16be de09 b13e ca3b aebe
000001b0: 5b73 0ebf f89b 91be 16d0 14bd 0130 f63e
000001c0: f5f1 9f3e 3ede 993d 3e13 0ebe 24bc 58be
000001d0: ba22 72be 9cfb b1be 1798 0f3f e66e 673e
000001e0: 0f77 9abe a947 39be a0f0 50bd 0ff2 ab3d
000001f0: b269 483e 4365 e9bd 00dc 68be 072f 86be
00000200: b114 c63e 85eb 51be 6ecf 3e3e 87b6 bbbd
00000210: c8cf af3d 08bf 7fbe e2f4 62be 3980 283e
00000220: 5376 453e bf79 8cbe f17c 57bd 332e 18be
00000230: 9334 b23d e4be 093e c56e 923e 05c6 09bf
00000240: 4fd4 683e 0228 94be 0343 d2bc 28bb 2b3e
00000250: 0411 20be d4d2 87bd 67e3 b73d c3b2 92be
00000260: 4c4c fd3e 616e 693d 459e 543d db48 94be
00000270: 3b3b cbbe ec87 b6bf 7ae3 c6be 729d 413f
00000280: 89c4 ddc0 3571 dfbe 453a 65bf 1fd5 0abe
00000290: 8fa0 7cbe 9cfa 38bf 92eb ba3c 4f13 94bf
000002a0: 57ef edbe 740a 02c0 c430 84bf 205a 2f40
000002b0: 8c6e 96bf 1017 b6bf e66b a3bf 4790 ca3f
000002c0: c9fb bbc0 e02c 5fbe 6a70 b7bd a1c5 1abe
000002d0: 0705 263a 4c70 bcbd beb8 173d c0b7 e2bd
000002e0: 9bd9 9dbe 32a9 203e a30d 2d3e 4cda 383e
000002f0: bc4c 99bd 25bd f53e 23cd e63e 6140 f63d
00000300: 8c25 2dbe 32a1 eabe 75f9 acbc a308 80bd
00000310: 258c 863e 3bd9 e0bd bb45 9e3e 81f1 403d
00000320: 0e7b b7be e4eb e23d c49c b03e a56b 3d3e
00000330: 1932 02bf c054 413e 3b18 863e 3522 05bf
00000340: fd72 38be 6bb9 033f bbc8 2a3f 8b77 8dbe
00000350: aa7d a2bf 72fd f0be 3ad6 d53e b05e 803e
00000360: eec9 0b3f 542c 0bbf 46b4 0b3d c646 adbb
00000370: 66a2 07be dcd8 b23d 955b 6e3d 5e99 95bd
00000380: bee7 ee3d 2d4a 28be 6fe3 01bd c900 833d
00000390: 3556 053e a518 16be f77b 433e 4149 4dbe
000003a0: 9dc2 e3bb 472e 663e 2967 2cbd abfb df3d
000003b0: ef62 6f3e 8774 99bd 2023 473d 402d cbbd
000003c0: 2dd7 323e bc75 debd 6306 193d 15a8 963c
000003d0: 19c6 2f3d a696 fdbd aa52 0ebe 5300 cd3e
000003e0: e87c 0c3d e3ef 963e f6d6 bebe f192 17bf
000003f0: 6309 d23e b71b e53e adbf 823f 02a9 cb3e

layers.0.bias f4 [128]
0.19100352 0.50782275 0.3569572 0.29001307 0.10828754 0.19955567 0.37484172 0.117695905
0.12731445 0.88594234 0.6135903 0.3949835 0.2132577 0.25625244 0.15161806 0.3093296
0.7048704 0.184998 0.18283752 0.24169798 0.2659891 0.35812938 0.26516888 0.3868717
0.10350754 0.24137124 0.21491219 0.29565614 0.14773569 0.18906622 0.20041066 0.5320612
0.41842148 0.6470602 0.16133352 0.34954938 0.42562413 0.6377458 0.12894674 0.1395794
0.10984595 0.26872998 0.09653992 0.1849253 0.24859095 0.5784395 0.19111627 0.21483013
0.42099398 0.5089517 0.4571634 0.3495603 0.3156455 0.28255388 0.34011438 0.10348554
0.28748342 0.17610097 0.15060738 0.28642777 0.40806055 0.1466958 0.27669862 0.16488491
0.18747942 0.22920497 -0.10012034 0.6269071 0.5537109 0.17346294 0.27260634 0.25558218
0.24152051 0.17707139 0.77180785 0.26831502 0.4080753 0.12912081 0.1393843 0.20416139
0.24233535 0.344657 -0.024502082 0.07126526 0.36248648 0.8075773 -0.097996265 0.4338072
0.38367617 0.20563805 0.41444567 0.3548598 0.20693944 0.25558317 0.1823738 0.35070968
0.35126987 0.35648575 0.28803703 0.13454351 0.13986157 0.15132204 0.30958256 0.19744688
0.49986276 0.7197204 0.19029051 0.23290879 0.6571052 0.51186603 0.13234644 0.17037855
-0.16796805 0.15848857 0.39750817 0.27265644 0.15446354 0.16611387 0.20287606 0.19126096
0.73506767 0.10892222 0.2347275 0.20466682 0.2093523 0.1871057 0.12071127 0.49454555
00000000: 6d96 433e ac00 023f 18c3 b63e 987c 943e
00000010: dcc5 dd3d 5258 4c3e 41eb bf3e 8d0a f13d
00000020: b85e 023e 1ecd 623f 4114 1d3f 473b ca3e
00000030: 3a60 5a3e 8533 833e c441 1b3e 7360 9e3e
00000040: 6372 343f 1e70 3d3e c239 3b3e ad7f 773e
00000050: b92f 883e bc5c b73e 37c4 873e 0c14 c63e
00000060: c3fb d33d 062a 773e f111 5c3e 3e60 973e
00000070: 0648 173e 939a 413e 7438 4d3e 2a35 083f
00000080: 573b d63e bda5 253f 9d34 253e 23f8 b23e
00000090: 68eb d93e 4f43 233f 9d0a 043e e7ed 0e3e
000000a0: eaf6 e03d fa96 893e b9b6 c53d 0f5d 3d3e
000000b0: a08e 7e3e 9c14 143f fcb3 433e 6efc 5b3e
000000c0: 868c d73e a94a 023f 5211 ea3e 91f9 b23e
000000d0: 499c a13e e7aa 903e 7923 ae3e 3af0 d33d
000000e0: 0731 933e d053 343e d238 1a3e a9a6 923e
000000f0: 50ed d03e 6c37 163e 71ab 8d3e 97d7 283e
00000100: 9bfa 3f3e b5b4 6a3e e50b cdbd fc7c 203f
00000110: ffbf 0d3f 45a0 313e 0f93 8b3e abdb 823e
00000120: 2751 773e 3452 353e 3395 453f 9660 893e
00000130: 3fef d03e 3f38 043e c2ba 0e3e af0f 513e
00000140: c226 783e e276 b03e 97b8 c8bc 85f3 913d
00000150: d497 b93e 63bd 4e3f 44b2 c8bd fa1b de3e
00000160: 3471 c43e c892 523e 3932 d43e 2fb0 b53e
00000170: efe7 533e ccdb 823e 33c0 3a3e 3890 b33e
00000180: a5d9 b33e 4d85 b63e 9779 933e c6c5 093e
00000190: df37 0f3e 2af4 1a3e 9b81 9e3e 842f 4a3e
000001a0: 03ee ff3e 993f 383f 84db 423e a47f 6e3e
000001b0: 0c38 283f a709 033f d385 073e b777 2e3e
000001c0: d1ff 2bbe d44a 223e 3186 cb3e a099 8b3e
000001d0: b12b 1e3e c119 2a3e bebe 4f3e ead9 433e
000001e0: 652d 3c3f 9d12 df3d 685c 703e 2e94 513e
000001f0: 7360 563e a398 3f3e 7837 f73d 1335 fd3e

layers.2.weight f4 [128, 128]
-1.1978377 0.13159345 -0.37251347 0.3688567 -0.64527607 0.42273057 -0.07192166 0.3659026
1.6931186 -0.702745 -0.57586306 -0.72770756 -0.104538105 0.80647695 -0.25024965 -0.14831111
0.032815307 -0.5270099 -0.62611294 -0.61600155 1.1043116 0.12601674 0.3994123 -0.20677915
0.32997027 -0.4293293 -0.5598302 1.108738 0.15270798 0.56846243 0.43126276 -0.36796054
-0.19791436 0.22355212 -0.4027389 -0.80813587 -0.27049875 -0.63235545 0.3932931 -0.58926535
0.0355466 0.12380625 -0.040375695 0.035264138 0.7149475 0.77107203 1.2740593 2.6735973
-0.73390186 1.1006738 -0.20270778 -1.0784737 0.36216602 -0.16435425 -0.04316961 -0.32258427
-0.23438919 0.10289272 -0.19973275 -0.33011234 0.4247046 0.36965668 -0.035249967 -0.028600134
-0.034538154 0.23702297 -0.03843059 0.31031844 -0.46132463 -0.34531885 0.54529154 0.36544484
-0.2860396 -1.0838132 -0.32574078 -0.4374912 -0.5802396 -0.082276605 0.05056603 1.8123146
-0.30940852 -0.88693404 -0.19118562 0.32978192 -1.2824807 -0.3709046 0.014059015 -0.32199228
0.29980093 -2.0400293 0.5111535 0.08788492 -0.60274583 -0.37421367 0.07475929 0.7318641
-0.23678242 0.45080116 -1.4082736 0.27748746 0.02912795 0.38958701 0.11512393 0.17544717
0.9266853 -0.33036762 0.6528961 0.014697033 0.18743065 -0.8248185 2.495555 0.29164672
0.013477703 -0.013604509 -0.76250374 -1.7408196 0.39855108 -0.011561652 -0.90287167 -0.077227086
-0.22401215 0.6989686 0.22392212 -1.1588706 2.0639584 -0.8441767 2.819591 2.7592456
-0.25808626 0.5879907 -0.038225837 1.2229817 2.1532829 1.1397794 0.055152636 -0.108648956
0.60949737 -0.99491507 -0.3147695 -0.036352884 0.8471095 -0.051810075 -0.33797473 0.18143441
0.29259112 -0.6784257 -0.88564926 -0.23427221 -0.11013806 -0.0005576485 0.33190316 -0.6295547
0.8628635 0.009589625 1.6424812 1.3024266 -0.63590336 -0.09352531 -1.239276 -0.38947043
-0.11015228 0.2414357 0.2578941 0.40382406 -0.35873428 -0.91124433 0.13411246 -0.27789044
0.058890436 0.018850897 0.1352705 -0.33241645 -0.0061828913 -0.013906753 0.58357435 0.5961711
-0.12178944 -0.14202385 -0.009699691 -0.3203993 0.4662885 -0.121132106 -0.24217035 -0.1055924
-0.20666185 -0.5354659 -1.2881197 -0.48852482 2.5111716 -0.20039359 -0.28009447 -1.1541023
0.26301974 0.7302469 -0.0347035 0.041623496 -0.46684265 0.09759986 0.74661326 -0.35806957
0.9790997 0.60490376 -0.66219026 -0.55347013 0.52423435 0.32056272 0.74843735 -1.2173144
-0.4571488 2.9348052 -0.08926003 -0.3057878 -0.56334007 -0.2124266 -0.15337682 -0.33923766
-0.009708001 -0.4678047 2.0609562 1.7319895 1.2926182 -0.011000917 0.16979843 -0.4771959
-0.17427535 0.65057164 0.14192842 -0.13853264 -0.64366645 0.5255926 -0.045578323 0.4911565
-0.23395562 -1.0839279 0.2277271 -0.23674956 -0.35080954 -0.29402557 2.665936 -0.18280199
0.075932845 0.13651542 0.035174076 -0.7160223 0.18577775 0.010179108 -0.4130964 0.103374824
-0.5290411 0.18205176 -0.30085528 0.78007853 -0.12127144 0.02281434 1.0122757 -1.0059172
00000000: bf52 99bf 6fc0 063e 16ba bebe c9da bc3e
00000010: d030 25bf 2470 d83e aa4b 93bd 9657 bb3e
00000020: 1cb8 d83f 19e7 33bf c36b 13bf 0b4b 3abf
00000030: 1318 d6bd 4675 4e3f b920 80be dede 17be
00000040: 5869 063d 1fea 06bf f048 20bf 47b2 1dbf
00000050: 155a 8d3f 880a 013e c57f cc3e eabd 53be
00000060: ddf1 a83e 0dd1 dbbe 0851 0fbf 20eb 8d3f
00000070: 7b5f 1c3e c186 113f 79ce dc3e 5365 bcbe
00000080: 10aa 4abe d9ea 643e cb33 cebe fee1 4ebf
00000090: d07e 8abe 0ce2 21bf b75d c93e 18da 16bf
000000a0: 5099 113d 228e fd3d fc60 25bd 2171 103d
000000b0: cd06 373f fa64 453f 6014 a33f 381c 2b40
000000c0: fee0 3bbf e1e2 8c3f a192 4fbe 6d0b 8abf
000000d0: d36d b93e 7b4c 28be 9ed2 30bd c429 a5be
000000e0: b803 70be 6bb9 d23d be86 4cbe 7c04 a9be
000000f0: e272 d93e a443 bd3e 4562 10bd d44a eabc
00000100: e177 0dbd 26b6 723e 6569 1dbd 0fe2 9e3e
00000110: be32 ecbe a2cd b0be 3a98 0b3f 961b bb3e
00000120: c873 92be 64ba 8abf 7fc7 a6be d9fe dfbe
00000130: 958a 14bf a380 a8bd 531e 4f3d edf9 e73f
00000140: cb6a 9ebe 1c0e 63bf 2ac6 43be 2dd9 a83e
00000150: 5428 a4bf 35e7 bdbe c857 663c 2cdc a4be
00000160: 827f 993e d78f 02c0 f5da 023f 02fd b33d
00000170: 8d4d 1abf ef98 bfbe 661b 993d 725b 3b3f
00000180: 1777 72be 69cf e63e 4f42 b4bf d612 8e3e
00000190: bd9d ee3c f377 c73e 18c6 eb3d 6ca8 333e
000001a0: 3f3b 6d3f f225 a9be 3324 273f d3cb 703c
000001b0: d2ed 3f3e 4e27 53bf 2cb7 1f40 b852 953e
000001c0: 95d1 5c3c 72e5 5ebc 7233 43bf 2dd3 debf
000001d0: e30e cc3e 156d 3dbc 9922 67bf 3c29 9ebd
000001e0: 7163 65be 9bef 323f d74b 653e df55 94bf
000001f0: e517 0440 f71b 58bf 2e74 3440 7b97 3040
00000200: e223 84be 8f86 163f b292 1cbd aa8a 9c3f
00000210: 63cf 0940 4be4 913f bbe7 613d 5883 debd
00000220: 0508 1c3f c1b2 7ebf 7829 a1be c3e6 14bd
00000230: 2bdc 583f cd36 54bd 060b adbe f1c9 393e
00000240: 81ce 953e 4fad 2dbf e9b9 62bf 0ee5 6fbe
00000250: 1090 e1bd 282f 12ba 36ef a93e 7f2a 21bf
00000260: 9fe4 5c3f cd1d 1d3c d33c d23f eab5 a63f
00000270: 90ca 22bf 338a bfbd 99a0 9ebf ab68 c7be
00000280: 8597 e1bd ec3a 773e b20a 843e 07c2 ce3e
00000290: 05ac b7be 4f47 69bf c754 093e a847 8ebe
000002a0: 1937 713d 326d 9a3c 5a84 0a3e 7d32 aabe
000002b0: da99 cabb 26d9 63bc 2165 153f ab9e 183f
000002c0: be6c f9bd b36e 11be 74eb 1ebc 610b a4be
000002d0: 5ebd ee3e 1c14 f8bd 81fb 77be d440 d8bd
000002e0: 2a9f 53be 4b14 09bf 1be1 a4bf ed1f fabe
000002f0: 09b7 2040 fa33 4dbe 8b68 8fbe a0b9 93bf
00000300: 86aa 863e 76f1 3a3f 4225 0ebd 667d 2a3d
00000310: 0006 efbe 6fe2 c73d 0c22 3f3f e554 b7be
00000320: 47a6 7a3f f9da 1a3f 4d85 29bf 38b0 0dbf
00000330: 3934 063f cc20 a43e 9799 3f3f f5d0 9bbf
00000340: 680f eabe d9d3 3b40 f6cd b6bd 3890 9cbe
00000350: 0e37 10bf 5c86 59be d00e 1dbe 8fb0 adbe
00000360: 4f0e 1fbc 1984 efbe b5e6 0340 d5b1 dd3f
00000370: 8374 a53f 313d 34bc a4df 2d3e 0553 f4be
00000380: 3d75 32be dd8b 263f af55 113e 80db 0dbe
00000390: 53c7 24bf 3d8d 063f 56b0 3abd dd78 fb3e
000003a0: 1092 6fbe 26be 8abf 4b31 693e 7a6e 72be
000003b0: 4f9d b3be 858a 96be b29e 2a40 7230 3bbe
000003c0: ae82 9b3d b3ca 0b3e b112 103d 3d4d 37bf
000003d0: 863c 3e3e 46c6 263c 5f81 d3be 2eb6 d33d
000003e0: 3d6f 07bf c76b 3a3e b409 9abe 3ab3 473f
000003f0: 295d f8bd 24e5 ba3c 4092 813f e5c1 80bf

layers.2.bias f4 [128]
0.13715138 -0.07214033 0.1855125 0.10531408 0.37585622 0.08179317 0.25636283 -0.15520963
0.501043 0.10019315 0.39316964 0.20834605 0.28744882 0.18549351 0.18086864 -0.20008042
0.44916633 0.79067224 0.12130262 0.012811781 -0.056232993 0.27654618 0.063684665 0.2296541
0.20429868 0.6630396 0.21040818 0.29631987 0.23706767 0.22181211 0.09479055 -0.115195595
0.610441 0.08081851 -0.21831927 0.08818424 -0.043154836 0.09153871 -0.14346822 0.0029842057
0.35944957 0.36115187 0.2975707 0.23628742 0.45694676 -0.04453396 -0.1180431 -0.041543648
0.26947257 0.14326045 0.16477361 0.4244295 -0.13952076 0.57766926 0.16617472 0.13682339
0.054467857 0.19670722 0.20228422 0.40048906 0.3632628 0.14634523 0.018627588 0.18983199
0.39051643 0.23580056 -0.27715334 0.29619294 0.0027314764 0.1502219 0.45716187 0.120038584
0.03984402 0.053193666 0.39898932 0.45051205 0.30345073 0.22768024 0.3782436 0.4363451
0.17114942 0.3723408 0.7446681 0.24844478 0.2078042 0.17609912 0.48543024 0.21993597
0.15564607 0.41459927 0.16901149 0.1378267 -0.016485354 -0.27119747 0.47248557 0.14469884
0.74405575 0.28206068 -0.26474983 0.26368654 -0.021532865 0.34442657 0.10398358 0.2795442
-0.16185434 0.2841394 0.23802853 -0.1305035 1.1691679 0.5237491 0.09595168 0.46143353
0.049724206 0.33777085 0.5422252 0.29332507 0.29718766 0.20306323 0.36128557 0.22537774
0.15813313 0.083382696 0.5165133 0.017674224 0.578376 0.45169705 0.13857615 0.3500631
00000000: 6971 0c3e 4fbe 93bd fdf6 3d3e e9ae d73d
00000010: 3a70 c03e 2d83 a73d fd41 833e 46ef 1ebe
00000020: 5b44 003f 1132 cd3d 884d c93e ab58 553e
00000030: 7e2c 933e 03f2 3d3e a135 393e e2e1 4cbe
00000040: 21f9 e53e 7f69 4a3f 826d f83d 81e8 513c
00000050: 9154 66bd 7697 8d3e 1b6d 823d 722a 6b3e
00000060: ac33 513e f7bc 293f 3e75 573e 3db7 973e
00000070: dec1 723e b722 633e 8c21 c23d abeb ebbd
00000080: dd45 1c3f 2d84 a53d 168f 5fbe f099 b43d
00000090: 20c3 30bd a678 bb3d 55e9 12be aa92 433b
000000a0: c609 b83e e6e8 b83e 305b 983e 54f5 713e
000000b0: edf4 e93e 3e69 36bd 95c0 f1bd ac29 2abd
000000c0: 4ff8 893e deb2 123e 6aba 283e d34e d93e
000000d0: 88de 0ebe 22e2 133f b529 2a3e 6e1b 0c3e
000000e0: b019 5f3d 9e6d 493e 9823 4f3e e70c cd3e
000000f0: 95fd b93e 86db 153e e298 983c 5163 423e
00000100: c5f1 c73e b475 713e 0be7 8dbe 9aa6 973e
00000110: 9202 333b c5d3 193e 1f11 ea3e cad6 f53d
00000120: 7c33 233d 9ae1 593d 5448 cc3e 84a9 e63e
00000130: e55d 9b3e 0225 693e 25a9 c13e a068 df3e
00000140: cb41 2f3e 74a3 be3e 92a2 3e3f 4f68 7e3e
00000150: a0ca 543e 5453 343e 508a f83e e536 613e
00000160: af61 1f3e 5b46 d43e 5911 2d3e 7122 0d3e
00000170: 4b0c 87bc 65da 8abe a1e9 f13e ef2b 143e
00000180: 707a 3e3f 426a 903e 4a8d 87be ec01 873e
00000190: b165 b0bc ae58 b03e 58f5 d43d 6b20 8f3e
000001a0: 25bd 25be b87a 913e c0bd 733e b6a2 05be
000001b0: 4ba7 953f 6c14 063f 5082 c43d 0441 ec3e
000001c0: 9cab 4b3d 4df0 ac3e 45cf 0a3f b42e 963e
000001d0: fb28 983e cfef 4f3e 6cfa b83e 6cc9 663e
000001e0: a7ed 213e 8cc4 aa3d 373a 043f 89c9 903c
000001f0: 7310 143f d644 e73e e8e6 0d3e 783b b33e

layers.4.weight f4 [88, 128]
-0.17211303 0.07104082 -0.13926883 -0.14148405 -0.1916969 0.03561005 -0.08785715 0.11845978
-0.09840429 -0.31685197 -0.32698515 0.048525706 -0.25910676 -0.17767864 -0.1425905 0.80136126
-0.17603205 -0.068883404 -0.11312277 0.41383728 -0.08943407 -0.1441334 -0.17332596 -0.68012655
-0.2894771 -0.24833202 -0.0773124 -0.14535466 0.13921359 -0.25247768 -0.17069095 0.20823051
0.04418707 0.07419127 0.40384468 0.08589687 -0.15013038 -0.30248412 0.3701665 0.029341755
-0.19624822 -0.14063387 0.038709324 0.06841913 0.13550445 -0.15503769 -0.17066249 -0.1766858
-0.12152625 -0.04201315 0.033638943 -0.061641563 -0.07615623 0.44278327 -0.2519704 0.02066689
0.07212651 -0.10338684 0.15615967 -0.34967393 0.04353421 -0.2282222 -0.24384989 0.05154621
0.31153172 0.17643058 -0.058981624 -0.025516719 0.0470996 0.19056971 -0.1990065 -0.1279616
0.14329205 0.122518644 0.23332682 0.026815783 0.022020452 -0.24160679 -0.18593372 -0.38894928
-0.09432492 -0.32003045 0.02600736 -0.08500629 -0.26475763 -0.12545142 0.004295614 -0.07516585
-0.039163787 -0.0843202 -0.2883683 -0.55004996 0.1677089 -0.12541811 0.06381434 -0.061054967
-0.20205197 -0.2000572 -0.22672796 -0.72548527 -0.0072108954 -0.007263112 -0.044145107 -0.044201877
-0.13015065 -0.2472115 -0.11834653 -0.03382189 -0.5427133 -0.31464913 -0.24798226 -0.3363455
0.089913785 -0.05369083 -0.042211615 0.3117796 -0.020103337 0.011399089 -0.06893329 0.0772599
-0.16735084 -0.16142018 -0.3678571 0.054406773 -0.19881572 -0.33377445 0.64440763 -0.019069385
0.09098204 -0.13832442 -0.33770308 -0.17197897 -0.19627416 -0.52040017 -0.18201245 0.009296069
0.038381495 -0.32819644 -0.033344135 0.07411146 -0.34644604 -0.056716654 -0.3190069 0.87060493
0.04315758 0.08142416 -0.69807833 0.23730457 -0.24440275 -0.24599214 -0.15533048 -0.11306088
-0.3320564 -0.33814466 -0.24349019 0.026669322 0.17748801 0.086151965 -0.46758404 0.31136554
0.27581885 -0.15945055 0.20532605 0.3470043 -0.39281917 -0.15344425 0.42498836 -0.08451698
-0.44331524 -0.44590962 0.24452929 -0.3559661 0.037537593 -0.025656337 -0.21918455 -0.17076738
-0.2064102 -0.24330346 0.10329979 -0.122348964 0.025995512 0.038519856 -0.1963187 -0.22414623
0.018441617 -0.24995987 0.24527988 -0.11943739 -0.123627245 -0.4280229 -0.6678687 -0.24978048
0.24171726 0.316446 0.3257581 -0.0053493325 -0.07672855 0.2586534 -0.3426636 -0.08892297
0.34232402 0.11882242 -0.027392274 -0.053357903 -0.34129044 -0.079039305 -0.16693084 -0.40736857
0.21719879 -0.0015392883 -0.0045199366 -0.17678541 -0.2549715 -0.26982287 -0.08078259 -0.13248083
-0.29303384 0.21854526 -0.8835443 -0.30936337 0.25462174 0.12340371 0.17861836 -0.07997738
-0.050845005 -0.22099154 -0.157251 -0.34462464 -0.029912358 0.09158325 -0.06353974 -0.16772263
-0.22192648 -0.22449209 -0.013499381 0.30029073 -0.7137832 -0.70911115 -0.7982819 -0.06611971
0.11552441 0.14251025 -0.36017135 0.7412497 -0.14050204 0.008876026 0.15323342 0.43120077
-0.19604537 -0.18503109 -0.28784782 -0.13097066 -0.2716502 -0.14070074 0.64184266 -0.16538787
00000000: 663e 30be d97d 913d 7d9c 0ebe 32e1 10be
00000010: 314c 44be d8db 113d 73ee b3bd 0b9b f23d
00000020: 3088 c9bd 6c3a a2be 996a a7be e4c2 463d
00000030: a4a9 84be 64f1 35be 3e03 12be 0326 4d3f
00000040: bf41 34be be12 8dbd e9ac e7bd 7be2 d33e
00000050: 3629 b7bd b597 13be 5c7c 31be c61c 2ebf
00000060: 5836 94be c04a 7ebe f755 9ebd dad7 14be
00000070: 028e 0e3e c144 81be 9cc9 2ebe 613a 553e
00000080: 80fd 343d 98f1 973d bbc4 ce3e b3ea af3d
00000090: c7bb 19be 33df 9abe 7786 bd3e 1f5e f03c
000000a0: 4bf5 48be 5302 10be ab8d 1e3d 541f 8c3d
000000b0: aec1 0a3e 33c2 1ebe 26c2 2ebe 1fed 34be
000000c0: c1e2 f8bd fb15 2cbd fdc8 093d dd7b 7cbd
000000d0: ccf7 9bbd 7db4 e23e 4402 81be 9c4d a93c
000000e0: 10b7 933d 7bbc d3bd 52e8 1f3e 7608 b3be
000000f0: ee50 323d 15b3 69be c9b3 79be 1e22 533d
00000100: 1681 9f3e 38aa 343e b796 71bd 7008 d1bc
00000110: 83eb 403d b524 433e 5cc8 4bbe 5e08 03be
00000120: 27bb 123e 0eeb fa3d 3aed 6e3e c6ac db3c
00000130: 3c64 b43c c567 77be 6965 3ebe 5c24 c7be
00000140: 6c2d c1bd 08db a3be 630d d53c c717 aebd
00000150: 508e 87be 5676 00be 39c2 8c3b 8ef0 99bd
00000160: 356a 20bd 12b0 acbd 03a5 93be 13d0 0cbf
00000170: e2bb 2b3e 9b6d 00be 18b1 823d c614 7abd
00000180: b6e6 4ebe cbdb 4cbe 602b 68be 67b9 39bf
00000190: 6049 ecbb 66ff edbb 80d1 34bd 070d 35bd
000001a0: 3646 05be 0325 7dbe aa5f f2bd d288 0abd
000001b0: 42ef 0abf b119 a1be 10ef 7dbe 7a35 acbe
000001c0: b824 b83d eaea 5bbd 16e6 2cbd 93a1 9f3e
000001d0: c1af a4bc 3fc3 3a3c e62c 8dbd 703a 9e3d
000001e0: 055e 2bbe 554b 25be c457 bcbe a3d9 5e3d
000001f0: 5996 4bbe 7ce4 aabe e6f7 243f 6637 9cbc
00000200: cb54 ba3d eba4 0dbe 6be7 acbe 411b 30be
00000210: 18fc 48be f238 05bf 7961 3abe 8a4e 183c
00000220: ea35 1d3d 5d09 a8be dc93 08bd c0c7 973d
00000230: 6061 b1be b94f 68bd df54 a3be f7df 5e3f
00000240: 01c6 303d b6c1 a63d 43b5 32bf f8ff 723e
00000250: b744 7abe 5de5 7bbe f40e 1fbe 768c e7bd
00000260: 4c03 aabe 4c21 adbe 7e55 79be 9f79 da3c
00000270: 6bbf 353e 7170 b03d 2d67 efbe 4e6b 9f3e
00000280: 2138 8d3e 0147 23be fe40 523e 8caa b13e
00000290: 981f c9be 7d20 1dbe 1398 d93e 3d17 adbd
000002a0: 37fa e2be 444e e4be e365 7a3e 3041 b6be
000002b0: 05c1 193d 3d2d d2bc ea71 60be a5dd 2ebe
000002c0: 325d 53be 8b24 79be d78e d33d 1892 fabd
000002d0: 8af4 d43c ffc6 1d3d c507 49be 9786 65be
000002e0: e012 973c 7bf5 7fbe a62a 7b3e 979b f4bd
000002f0: 4830 fdbd d125 dbbe 71f9 2abf 74c6 7fbe
00000300: bb84 773e 3605 a23e c4c9 a63e 7449 afbb
00000310: dc23 9dbd 386e 843e 9a71 afbe 3f1d b6bd
00000320: 1845 af3e 2b59 f33d c365 e0bc d18d 5abd
00000330: 9fbd aebe 5cdf a1bd ebef 2abe 9d92 d0be
00000340: 5c69 5e3e f2c1 c9ba fa1b 94bb 3c07 35be
00000350: a08b 82be 3926 8abe 5871 a5bd 0ea9 07be
00000360: 8808 96be 54ca 5f3e f62f 62bf e064 9ebe
00000370: c85d 823e 16bb fc3d bbe7 363e 2ecb a3bd
00000380: da42 50bd 9b4b 62be 6806 21be a472 b0be
00000390: c30a f5bc 0090 bb3d 2021 82bd 7bbf 2bbe
000003a0: b240 63be 41e1 65be 822c 5dbc b5bf 993e
000003b0: 7fba 36bf 4f88 35bf 345c 4cbf c569 87bd
000003c0: 1098 ec3d 35ee 113e 6168 b8be 8ac2 3d3f
000003d0: c4df 0fbe c06c 113c 39e9 1c3e 59c6 dc3e
000003e0: 1ec0 48be ca78 3dbe ca60 93be 2c1d 06be
000003f0: bc15 8bbe db13 10be cd4f 243f 705b 29be

layers.4.bias f4 [88]
-0.14012171 -0.048967246 -0.037154593 -0.048327077 0.016616834 0.035470583 -0.11540127 0.030837128
-0.1708781 -0.06632193 -0.11926786 -0.09379031 -0.01700483 -0.08179382 -0.19395743 0.0771002
-0.10117308 -0.12763782 -0.006727199 -0.25858805 -0.1957579 -0.3228391 0.19657162 -0.09833203
0.032924615 -0.07315674 0.0047732326 -0.28111276 0.11365166 -0.044711307 -0.05848992 0.041063428
-0.051457558 -0.19867027 0.022707129 0.024204941 -0.059175476 -0.17973459 0.11369499 0.040117748
-0.074951515 -0.17420842 0.09182185 0.04504811 0.055004396 -0.10859475 0.19959295 0.19367279
0.030778108 0.00084792345 -0.009692703 0.13240126 0.14480154 -0.15609017 0.21601544 0.065124966
0.06202195 0.13434008 -0.22567378 0.2522551 0.10813677 0.054163873 0.15753613 0.09311761
0.14194617 0.005612435 0.15907021 0.068555966 -0.12786429 0.01447465 0.005544819 -0.04294549
-0.025377758 -0.019719915 -0.0410296 0.054653425 -0.04603831 0.05340925 0.06012285 0.03992409
-0.02638512 -0.05599193 -0.015883757 -0.0063434863 -0.13217053 -0.05672253 -0.119249254 0.00073703233
00000000: 117c 0fbe e191 48bd 6a2f 18bd 9df2 45bd
00000010: 0720 883c 9a49 113d 8057 ecbd 259e fc3c
00000020: abfa 2ebe cbd3 87bd b542 f4bd 2215 c0bd
00000030: b74d 8bbc 8583 a7bd c79c 46be b6e6 9d3d
00000040: d533 cfbd 7db3 02be d66f dcbb a765 84be
00000050: c274 48be 2b4b a5be 124a 493e 4e62 c9bd
00000060: f6db 063d 33d3 95bd c768 9c3b 03ee 8fbe
00000070: 34c2 e83d 3423 37bd 2093 6fbd 2032 283d
00000080: 29c5 52bd 3870 4bbe 4d04 ba3c 7149 c63c
00000090: fc61 72bd 580c 38be ebd8 e83d 8252 243d
000000a0: 2e80 99bd b163 32be 180d bc3d 5e84 383d
000000b0: 4a4c 613d ed66 debd 1862 4c3e 2952 463e
000000c0: 5f22 fc3c 2e47 5e3a 25ce 1ebc 3294 073e
000000d0: db46 143e 1ad6 1fbe 2733 5d3e 3d60 853d
000000e0: ba0a 7e3d 7290 093e 0717 67be 9527 813e
000000f0: d076 dd3d f0da 5d3d 2751 213e 72b4 be3d
00000100: 565a 113e 84e8 b73b 4de3 223e 1267 8c3d
00000110: dbee 02be 1527 6d3c 50b1 b53b 9ce7 2fbd
00000120: 04e5 cfbc a98b a1bc a70e 28bd 45dc 5f3d
00000130: ab92 3cbd a8c3 5a3d 6143 763d 7187 233d
00000140: 9b25 d8bc cb57 65bd a71e 82bc 05dd cfbb
00000150: b657 07be e255 68bd f438 f4bd 6735 413a
