checkpoints/TransductionFC_300000_21-01-2023-05-39-52.pth (torch, 159511 bytes, 6 tensors)

layers.0.weight f4 [128, 89]
0.17115024 0.21082617 -0.17317876 -0.010625013 -0.19892165 0.04862711 -0.08454823 0.124689944
-0.13828553 -0.14736104 -0.110039875 0.11843622 0.047736898 0.23700938 -0.08870333 -0.114857554
-0.09797902 0.110512786 -0.01128028 0.04879423 -0.03299806 -0.05779399 -0.076692246 0.026821561
0.1030253 -0.09644607 0.04369844 -0.045483515 -0.31813204 -4.6875944 -6.300843 -5.809109
-4.904167 -0.5052059 -0.18935321 0.18271431 0.22521295 0.016936606 -0.19194348 -0.05995198
-0.036970988 -0.18701038 -0.06037497 -0.07199297 -0.10166595 -0.038655918 -0.07101606 -0.07255959
-0.11762608 -0.06942007 -0.055423282 -0.1453818 -0.10338125 -0.08808624 -0.065667234 -0.12461044
-0.09001499 -0.07897741 -0.14919572 0.0071258023 -0.07817698 -0.1534486 -0.04269451 -0.006680889
-0.060510166 0.008056108 0.020865625 0.043548975 -0.14637792 -0.06665463 0.13442646 -0.085851945
-0.33143723 0.0995291 0.2867908 0.21433991 -0.27834988 0.30652186 0.6921077 -0.38447136
0.9563566 -0.2052247 0.8277663 -3.1068056 1.4201666 0.88142943 -3.1631775 0.5457043
0.21102184 0.0235669 -0.6261432 -0.030538287 -0.72393876 -0.14611131 0.0022705065 -0.23754478
-0.23863079 0.20923486 0.11357975 -0.42794204 -0.08079637 0.37308615 -0.561329 0.13956484
-0.34460902 -0.8338853 0.93754756 -0.30059808 -0.38378945 -0.20864575 0.025302622 -0.11803759
-0.30027413 -0.03799999 -0.1823053 -0.1793501 0.0133864265 -0.32535857 0.024995124 -0.045060545
-0.5981652 0.38502297 -0.49636903 -0.26682898 -0.17360148 0.116786495 -0.9941436 -1.4425148
2.7170537 -1.9467884 -0.62895024 -0.068601 -0.24423939 -0.20247343 -0.2634338 -0.20658317
-0.116279505 -0.076017395 -0.26754537 -0.320554 -0.1293398 -0.49002168 0.09809073 -0.24199392
-0.47459158 -0.29641974 -0.20715588 -0.32511714 -0.17140871 -0.20992614 -0.4019638 -0.06491142
-0.27165148 -0.1258313 -0.28485623 -0.3310451 -0.24560456 0.014109103 -0.20030013 -0.1805537
-0.2953934 -0.2212581 -0.41347158 0.5110754 -0.14808492 -0.47913182 0.6414063 -0.11051689
-0.18644994 -0.1197022 -0.8007725 -0.6984454 1.2857612 0.43785596 -0.7766492 0.401517
1.2230015 1.0047944 -1.2033174 -0.3700441 -0.059935514 -0.014349708 0.11599336 -0.27723923
-0.5372492 0.00987938 -0.12247119 -0.053364247 0.37801307 -0.0673588 -0.14224806 -0.5165056
-0.13329263 0.1398981 -0.2504115 -0.017315166 -0.17384893 -0.06164879 -0.08943764 -0.22933118
-0.18902352 -0.029998546 0.33722028 -0.39237657 -0.11602118 -0.28468683 -0.026210146 -0.18918295
-0.12382856 0.026117012 0.01323004 -0.61969805 0.4115065 -0.2749454 -0.26092887 -0.32146752
0.104191326 -0.21839276 0.048272178 -0.86254627 -0.37300375 1.0891268 -0.42748177 -0.5408619
-0.05675296 -0.13294934 0.2718279 -0.4944245 -0.040019713 -0.1553628 -0.12375612 -0.29861355
-1.0681751 1.31089 -0.7709686 -0.5102969 -0.37249205 -0.4532001 0.22061563 -0.47688663
-0.31546786 -0.2638104 -0.16071057 -0.27753654 -0.4694092 -0.3070789 -0.7873992 -0.36373404
-0.58619195 -0.10000402 0.29393366 -1.0948961 -0.49716055 -0.33588162 -0.47240254 -0.9015474
00000000: 0242 2f3e d1e2 573e c655 31be 8914 2ebc
00000010: 1eb2 4bbe 382d 473d 9f27 adbd 715d ff3d
00000020: b99a 0dbe d0e5 16be 965c e1bd b08e f23d
00000030: c487 433d 96b2 723e 17aa b5bd 703a ebbd
00000040: 39a9 c8bd 8754 e23d ecd0 38bc 75dc 473d
00000050: f928 07bd 64b9 6cbd d310 9dbd e4b8 db3c
00000060: eefe d23d 8485 c5bd 23fd 323d ec4c 3abd
00000070: 34e2 a2be c600 96c0 81a0 c9c0 39e4 b9c0
00000080: f0ee 9cc0 2d55 01bf cfe5 41be 7619 3b3e
00000090: 399e 663e a3be 8a3c d58c 44be 3590 75bd
000000a0: e46e 17bd a67f 3fbe bf4b 77bd 0d71 93bd
000000b0: 3d36 d0bd ab55 1ebd de70 91bd 1f9a 94bd
000000c0: f1e5 f0bd 1c2c 8ebd 8603 63bd f7de 14be
000000d0: 8cb9 d3bd 8f66 b4bd 8b7c 86bd c233 ffbd
000000e0: c759 b8bd e9be a1bd c3c6 18be 907f e93b
000000f0: 411b a0bd a121 1dbe 70e0 2ebd 5ceb dabb
00000100: 82d9 77bd c4fd 033c 63ee aa3c 6960 323d
00000110: 18e4 15be 3982 88bd 17a7 093e 25d3 afbd
00000120: 24b2 a9be ead5 cb3d 3ed6 923e ec7b 5b3e
00000130: e083 8ebe 6ff0 9c3e f82d 313f 6ed9 c4be
00000140: c9d3 743f 6c26 52be 7ee8 533f e7d5 46c0
00000150: 05c8 b53f 5ca5 613f 8071 4ac0 47b3 0b3f
00000160: 1c16 583e 5f0f c13c ec4a 20bf 6e2b fabc
00000170: 0d54 39bf 349e 15be c7cc 143b f03e 73be
00000180: a15b 74be aa41 563e 809c e83d 381b dbbe
00000190: 9178 a5bd 2605 bf3e 42b3 0fbf 16ea 0e3e
000001a0: 9870 b0be 8279 55bf 1e03 703f fee7 99be
000001b0: 0d80 c4be 3ba7 55be 7247 cf3c b1bd f1bd
000001c0: 88bd 99be e1a5 1bbd 3eae 3abe 8da7 37be
000001d0: be52 5b3c 6695 a6be 93c2 cc3c 6891 38bd
000001e0: 5b21 19bf bb21 c53e 1524 febe cf9d 88be
000001f0: 96c4 31be c22d ef3d 3280 7ebf 53a4 b8bf
00000200: 35e4 2d40 5d30 f9bf e202 21bf ae7e 8cbd
00000210: e419 7abe 3255 4fbe cce0 86be 8a8a 53be
00000220: f323 eebd 02af 9bbd b5fb 88be a71f a4be
00000230: a771 04be 1fe4 fabe cbe3 c83d 41cd 77be
00000240: abfd f2be 54c4 97be ac20 54be c175 a6be
00000250: c485 2fbe e1f6 56be 33ce cdbe 47f0 84bd
00000260: e715 8bbe ecd9 00be add8 91be be7e a9be
00000270: c37f 7bbe de29 673c 7a1b 4dbe 12e3 38be
00000280: ce3d 97be 7c91 62be 8cb2 d3be d6d5 023f
00000290: 93a3 17be c450 f5be 3433 243f ae56 e2bd
000002a0: bcec 3ebe 6d26 f5bd 6dff 4cbf 51cd 32bf
000002b0: d393 a43f a82e e03e 7bd2 46bf a393 cd3e
000002c0: 508b 9c3f 1a9d 803f 4e06 9abf 6c76 bdbe
000002d0: f17e 75bd 0a1b 6bbc ed8d ed3d 4df2 8dbe
000002e0: 2a89 09bf 20dd 213c 2dd2 fabd 7894 5abd
000002f0: ee8a c13e 69f3 89bd 7aa9 11be b639 04bf
00000300: dd7d 08be 7341 0f3e f035 80be 89d8 8dbc
00000310: 7405 32be 7183 7cbd 152b b7bd cbd5 6abe
00000320: 628f 41be 83bf f5bc 23a8 ac3e 95e5 c8be
00000330: 839c edbd 79c2 91be a9b6 d6bc 2db9 41be
00000340: d499 fdbd 58f3 d53c cfc2 583c 88a4 1ebf
00000350: fbb0 d23e a5c5 8cbe 7898 85be 6497 a4be
00000360: 4362 d53d 5aa2 5fbe 0cb9 453d d5cf 5cbf
00000370: 59fa bebe 8268 8b3f e4de dabe ed75 0abf
00000380: cb75 68bd df23 08be 072d 8b3e 3525 fdbe
00000390: b6eb 23bd 6d17 1fbe d973 fdbd e0e3 98be
000003a0: f6b9 88bf 3ecb a73f 335e 45bf d1a2 02bf
000003b0: 47b7 bebe d809 e8be 10e9 613e 7c2a f4be
000003c0: 0185 a1be 2812 87be 5091 24be 4519 8ebe
000003d0: 6756 f0be 7239 9dbe fe92 49bf 593b babe
000003e0: ad10 16bf e8ce ccbd 797e 963e 8e25 8cbf
000003f0: d48b febe adf8 abbe bfde f1be cfcb 66bf

layers.0.bias f4 [128]
0.273583 0.32803413 0.3760811 0.30909008 0.46910277 0.19785152 0.13777295 0.2607507
0.21273464 0.1920419 0.24862185 0.5906876 0.20642106 0.16837433 0.41547465 0.24227424
0.42119437 0.029388005 0.20399067 0.25882298 0.33219388 0.20651871 0.3498108 0.057489164
0.18090603 0.31417882 0.3384622 0.22116953 0.32844564 0.4274251 0.6576717 0.51485115
0.34227347 0.18091397 0.29636285 0.27364075 0.15660875 0.57073843 0.19420174 0.40867206
0.1692109 0.23907235 0.8114925 0.1285008 0.2001518 0.09310066 0.38843262 0.55574447
0.15797937 0.34391397 0.16854778 0.28696346 0.25002334 0.11495737 0.21340086 0.1063264
0.27661034 0.5347754 0.3189112 0.36278436 0.31608978 0.13645948 0.20029607 0.42135715
0.20643078 0.42872405 0.1119633 0.82952446 -0.1103249 0.27547842 0.486239 0.23424192
0.22668718 0.28833506 0.2500215 0.50818753 0.46051478 0.17238075 0.095080666 0.3395072
0.27469543 0.26951256 0.22597286 0.40744784 0.23645654 1.1268759 0.10320817 0.15792452
0.27806276 0.39835063 0.09776081 0.5054131 0.23523194 0.25308543 0.43755117 0.8265844
0.3264226 0.28899547 0.14097519 0.21680057 0.48082367 0.14194939 0.5717997 0.13605544
0.036066633 0.22325113 0.12599726 0.29327494 0.14263967 0.12542935 0.3074746 0.16388278
0.23959818 0.23721874 0.27117184 0.2772947 0.09011693 0.1880756 0.6879434 0.19334206
0.13593924 0.048785426 0.43077892 0.3811074 0.35729742 0.057332646 0.22269055 0.13536912
00000000: 1213 8c3e 17f4 a73e b48d c03e 0e41 9e3e
00000010: 3d2e f03e 9799 4a3e 5a14 0d3e 1e81 853e
00000020: 1cd7 593e a2a6 443e ba96 7e3e 4d37 173f
00000030: 0b60 533e 526a 2c3e 18b9 d43e bd16 783e
00000040: caa6 d73e 1dbf f03c eee2 503e 7284 843e
00000050: 5115 aa3e a479 533e 671a b33e c279 6b3d
00000060: 6e3f 393e 0cdc a03e eb4a ad3e 447a 623e
00000070: 072a a83e 76d7 da3e 2c5d 283f 49cd 033f
00000080: 783e af3e 8341 393e dfbc 973e a41a 8c3e
00000090: 0b5e 203e ea1b 123f d2dc 463e 773d d13e
000000a0: 9f45 2d3e 62cf 743e f9bd 4f3f b795 033e
000000b0: 98f4 4c3e 8fab be3d a4e0 c63e 4545 0e3f
000000c0: 58c5 213e 7e15 b03e ca97 2c3e e0ec 923e
000000d0: 0f03 803e c56e eb3d c185 5a3e a8c1 d93d
000000e0: df9f 8d3e 0ae7 083f 5448 a33e dfbe b93e
000000f0: 85d6 a13e 09bc 0b3e 6a1a 4d3e 20bc d73e
00000100: 9762 533e b881 db3e 044d e53d b75b 543f
00000110: 05f2 e1bd 820b 8d3e 51f4 f83e 1ddd 6f3e
00000120: af20 683e a7a0 933e d102 803e 9418 023f
00000130: 98c8 eb3e 9484 303e a7b9 c23d e3d3 ad3e
00000140: e1a4 8c3e 8dfd 893e 6e65 673e 019d d03e
00000150: aa21 723e 783d 903f ce5e d33d f7b6 213e
00000160: 3e5e 8e3e 9df4 cb3e d236 c83d c162 013f
00000170: a4e0 703e 6a94 813e b506 e03e 099b 533f
00000180: dd20 a73e 37f7 933e cd5b 103e f800 5e3e
00000190: 852e f63e 2e5b 113e 7761 123f 1e52 0b3e
000001a0: 9bba 133d f29b 643e 6d05 013e 2228 963e
000001b0: 2210 123e 8d70 003e 506d 9d3e e3d0 273e
000001c0: 3a59 753e 78e9 723e 09d7 8a3e 92f9 8d3e
000001d0: 3a8f b83d e496 403e 0f1d 303f 76fb 453e
000001e0: a833 0b3e 3ad3 473d 0e8f dc3e 8220 c33e
000001f0: b0ef b63e a3d5 6a3d fe08 643e 349e 0a3e

layers.2.weight f4 [128, 128]
-0.28108987 0.07308114 0.5404684 -0.7153481 -0.6687957 -0.26015806 0.19700243 0.74531156
-0.0030452611 0.3865058 1.1704023 -1.0181534 0.21358916 -0.11553574 -0.116713755 0.029803999
-1.1364504 0.33654737 1.1443146 0.2708121 1.0060878 -0.3864664 0.92623025 -0.2869118
0.257822 0.053206462 0.9606416 -0.60946614 0.21524128 0.97792196 -1.7100053 -0.2061181
0.9781162 0.03088653 0.55208474 0.41343987 0.25263613 0.44844452 -1.296098 0.14324255
0.573558 0.7193818 -0.85057366 -0.3264334 -0.24839053 0.5959632 0.27728227 0.11690528
0.7744171 -0.06773408 0.0911833 -0.8617019 0.8210572 0.066044845 -1.1114954 0.3838654
0.42161778 -0.30352116 0.6946821 0.5539308 0.3958244 -1.7279375 -0.0062673963 0.7275774
-0.999266 0.62952244 0.5399975 -1.1754599 1.0567427 0.97876924 -0.51539683 0.64242977
0.3120546 0.97983223 0.510288 0.975885 -0.8338681 0.7490472 -0.1435628 0.10923782
0.48967832 1.3111163 -0.36138213 -0.27782962 -0.62375295 0.11936478 0.8335089 -0.3540856
-0.5693788 0.7224345 0.966845 -0.51893294 -0.16361651 0.70163375 1.0966157 -0.18178247
0.120629825 -0.5497709 0.38165465 0.7760059 0.78497547 1.4778569 -0.45112398 0.51783156
-0.52398974 -0.07642693 0.6281723 -0.017811593 0.040714107 0.78656536 -0.6705702 0.4704732
-0.19461468 -0.09575093 -1.0194399 -2.3856142 -0.17557575 -0.53758264 -1.2570233 0.55215025
-0.5604517 0.7502235 -0.7063756 -0.3954273 -0.44191718 0.3266519 -0.2582872 0.7111366
-2.3028991 0.116383426 -0.11919596 -0.0069495244 -0.7926066 0.5388286 0.4558999 -0.16995677
0.36344445 0.8309706 -0.9959757 -1.2490426 0.72644776 -0.03606605 0.08075533 0.91940826
-0.82697654 0.47873348 0.2658085 0.110540144 0.4501616 0.69759583 0.6039448 -0.35893416
0.35761082 0.31320488 -0.46992785 0.692803 0.7565071 -0.23815258 -0.9998724 -0.7756194
-0.6274146 0.49412298 0.747866 0.47122717 0.6147211 -0.050398495 1.0438751 -0.26786372
0.41976818 0.46291503 -0.00050221715 -0.09882382 0.25846958 0.585625 -1.0795747 0.16454916
0.31950063 0.064681284 0.16419105 0.04878374 -1.1702503 -0.2938033 -0.20463717 0.7764802
0.287012 -0.32662877 0.2713825 1.0223802 0.08387771 -0.07012751 -0.09491328 -0.0074286778
-0.42696375 -0.14147922 -0.3395634 -0.40163988 0.14134908 -0.056362383 -0.5356467 0.8230219
0.80832016 0.013040599 0.8037133 0.13567078 0.16035922 0.38822508 0.5187114 0.73297983
-0.08279843 0.51423293 0.24305603 0.9744896 0.7140004 -0.28952768 1.0437975 0.4257187
-0.9620935 0.20423143 0.07203026 -0.4055573 0.6297685 0.3113857 -0.38401815 -0.1561851
0.47066405 0.3363246 0.023914497 0.37326175 0.4977654 0.16361634 -0.5902461 -0.44200927
-0.059877828 0.33896777 0.61246026 0.705298 0.33867005 -0.051827446 0.6279717 -1.6978477
0.45640266 -0.13799112 0.8840625 0.6498678 0.67411447 0.7540884 -0.11749266 -0.8197215
0.14742106 0.4452309 -1.635462 0.82065487 0.9856564 0.5284368 0.7891022 0.64616704
00000000: 03eb 8fbe 91ab 953d 235c 0a3f 0e21 37bf
00000010: 3236 2bbf 7033 85be 01bb 493e bdcc 3e3f
00000020: 0193 47bb 17e4 c53e becf 953f da52 82bf
00000030: 1eb7 5a3e 019e ecbd 9f07 efbd 8427 f43c
00000040: 3577 91bf f04f ac3e e778 923f e2a7 8a3e
00000050: 7cc7 803f edde c5be 6d1d 6d3f 1ae6 92be
00000060: 3f01 843e 05ef 593d 9cec 753f f905 1cbf
00000070: 3668 5c3e 1859 7a3f 74e1 dabf a010 53be
00000080: d365 7a3f c005 fd3c 6d55 0d3f 64ae d33e
00000090: 8659 813e 859a e53e 8ae6 a5bf 2dae 123e
000000a0: b2d4 123f 6829 383f 32bf 59bf 4722 a7be
000000b0: 165a 7ebe 0b91 183f f1f7 8d3e 096c ef3d
000000c0: 3340 463f 2ab8 8abd 4fbe ba3d 7f98 5cbf
000000d0: ce30 523f 8542 873d 7b45 8ebf 018a c43e
000000e0: 49de d73e 2067 9bbe b0d6 313f 69ce 0d3f
000000f0: 7fa9 ca3e 0e2d ddbf bb5e cdbb 8342 3a3f
00000100: e6cf 7fbf 6228 213f 473d 0a3f 7875 96bf
00000110: 5843 873f 9f90 7a3f 0cf1 03bf 4776 243f
00000120: 9fc5 9f3e 49d6 7a3f 3ca2 023f 99d3 793f
00000130: 6178 55bf 8fc1 3f3f 2002 13be 14b8 df3d
00000140: 1eb7 fa3e a9d2 a73f 1407 b9be af3f 8ebe
00000150: 46ae 1fbf 8675 f43d d760 553f b54a b5be
00000160: cfc2 11bf 78f1 383f 2783 773f cad8 04bf
00000170: 168b 27be 459e 333f e75d 8c3f 2f25 3abe
00000180: c50c f73d c9bd 0cbf 3d68 c33e 53a8 463f
00000190: 27f4 483f 6a2a bd3f b9f9 e6be 9c90 043f
000001a0: 3124 06bf b985 9cbd e6cf 203f 9ee9 91bc
000001b0: d6c3 263d 595c 493f 7daa 2bbf dde1 f03e
000001c0: 1249 47be 1019 c4bd 027d 82bf e7ad 18c0
000001d0: 21ca 33be 049f 09bf 24e6 a0bf b859 0d3f
000001e0: c379 0fbf a60e 403f 08d5 34bf 7275 cabe
000001f0: f842 e2be eb3e a73e 383e 84be 0c0d 363f
00000200: b362 13c0 6f5a ee3d 031d f4bd d6b8 e3bb
00000210: 44e8 4abf acf0 093f b66b e93e 2609 2ebe
00000220: 6415 ba3e 7dba 543f 43f8 7ebf a1e0 9fbf
00000230: 7bf8 393f ffb9 13bd 0d63 a53d 575e 6b3f
00000240: bcb4 53bf 8e1c f53e 0d18 883e df62 e23d
00000250: 957b e63e a495 323f 209c 1a3f 38c6 b7be
00000260: c418 b73e 645c a03e 629a f0be 8a5b 313f
00000270: 73aa 413f 45de 73be a3f7 7fbf fe8e 46bf
00000280: 3e9e 20bf b0fd fc3e 2574 3f3f b044 f13e
00000290: 5d5e 1d3f a76e 4ebd b39d 853f 6f25 89be
000002a0: dbeb d63e 3303 ed3e 39a7 03ba 2564 cabd
000002b0: 2056 843e 85eb 153f 812f 8abf 937f 283e
000002c0: 9695 a33e 9f77 843d b321 283e 75d1 473d
000002d0: c3ca 95bf 636d 96be 688c 51be 68c7 463f
000002e0: 3df3 923e e33b a7be a6f2 8a3e 5bdd 823f
000002f0: 14c8 ab3d 039f 8fbd e561 c2bd 446c f3bb
00000300: fe9a dabe eedf 10be 41db adbe bea3 cdbe
00000310: d0bd 103e 3edc 66bd 2420 09bf 90b1 523f
00000320: 12ee 4e3f 3da8 553c 28c0 4d3f 48ed 0a3e
00000330: 3535 243e 70c5 c63e 45ca 043f 91a4 3b3f
00000340: 3992 a9bd c5a4 033f aee3 783e 2778 793f
00000350: bbc8 363f f93c 94be 289b 853f cdf7 d93e
00000360: c24b 76bf 0b22 513e 9a84 933d 35a5 cfbe
00000370: 8238 213f f26d 9f3e 079e c4be fdee 1fbe
00000380: e1fa f03e bd32 ac3e 56e8 c33c 2a1c bf3e
00000390: 1bdb fe3e 0b8b 273e 5e1a 17bf 0a4f e2be
000003a0: 7442 75bd 2f8d ad3e 32ca 1c3f 698e 343f
000003b0: 2966 ad3e 0449 54bd c1c2 203f 1353 d9bf
000003c0: 9cad e93e 8b4d 0dbe ec51 623f bc5d 263f
000003d0: c492 2c3f f00b 413f fe9f f0bd 45d9 51bf
000003e0: 8cf5 163e 4ef5 e33e d256 d1bf 7016 523f
000003f0: fa53 7c3f a247 073f 9a02 4a3f 346b 253f

layers.2.bias f4 [128]
-0.30168545 -0.0987572 -0.057975043 0.5390963 -0.35123256 -0.17475268 0.033249274 0.004479332
-0.05374406 -0.13953142 -0.3527283 -0.14987831 -0.15362377 -0.40230975 -0.08931527 0.31395882
0.24007608 0.01199095 -0.09989889 -0.16062358 -0.21386582 -0.6239159 -0.152942 -0.22182862
-0.102417976 0.10110903 -0.30286527 -0.18987504 -0.23058459 1.5471336 -0.3042674 0.71725065
-0.5746286 -0.22969913 -0.2740238 -0.104375616 -0.017311946 -0.041222125 -0.36073893 -0.011464619
-0.05057629 0.091671966 0.22505033 0.16140424 -0.44812858 -0.2784042 -0.5736157 0.12634107
-0.074826136 0.21359521 -0.18250434 -0.4831929 -0.11044161 0.067516826 0.194575 0.055050652
-0.0357556 -0.17684866 -0.10137855 0.2834995 -0.036526777 -0.049899437 0.065736935 -0.31864637
-0.2903054 0.21446353 -0.15050167 -0.016104162 -0.035518445 0.74211794 -0.10840771 0.49370104
-0.0012252964 0.07888429 -0.20570934 -0.4974084 -0.37276182 0.6879796 -0.12423567 -0.0224657
-0.3053858 -0.7272591 -0.07239468 -0.17194395 0.04543492 -0.09371167 -0.22558157 -0.09227835
-0.06648178 -0.6181067 0.24189709 -0.2155272 0.09665438 0.12889564 -0.09738839 0.04424581
0.10768081 0.28666455 0.41421446 0.0077410634 0.375122 -0.19747612 -0.23110397 -0.020673705
-0.25159246 -0.24003336 -0.23939994 0.92769337 -0.0774329 -0.021432485 0.20356792 -0.43956012
0.23439997 -0.5088672 -0.20151773 -0.6143396 0.0831033 0.10802503 -0.023822067 -0.42125463
0.1392922 -0.23443943 1.0035652 0.053084023 0.44180855 -0.74734956 -0.5010364 -0.3204825
00000000: 8476 9abe 3741 cabd 3d77 6dbd 3702 0a3f
00000010: c1d4 b3be 5ef2 32be 6430 083d 5cc7 923b
00000020: bb22 5cbd 53e1 0ebe ce98 b4be b379 19be
00000030: 8d4f 1dbe 8bfb cdbe edea b6bd 36bf a03e
00000040: 81d6 753e b175 443c ca97 ccbd 827a 24be
00000050: a4ff 5abe f4b8 1fbf d49c 1cbe 0b27 63be
00000060: 84c0 d1bd 4012 cf3d 2811 9bbe 9a6e 42be
00000070: 5e1e 6cbe 7908 c63f f0c8 9bbe bd9d 373f
00000080: dc1a 13bf 4036 6bbe d94c 8cbe e2c2 d5bd
00000090: c8d1 8dbc 88d8 28bd c6b2 b8be 19d6 3bbc
000000a0: 1529 4fbd 83be bb3d 9873 663e 2747 253e
000000b0: 1c71 e5be ff8a 8ebe 7ad8 12bf 8e5f 013e
000000c0: 723e 99bd b4b8 5a3e 6be2 3abe 0f65 f7be
000000d0: 362f e2bd 4346 8a3d ab3e 473e cb7c 613d
000000e0: 7774 12bd d117 35be 8f9f cfbd d926 913e
000000f0: 1a9d 15bd 5a63 4cbd 16a1 863d 9e25 a3be
00000100: e9a2 94be 549c 5b3e 1c1d 1abe e0ec 83bc
00000110: ca7b 11bd 71fb 3d3f dd04 debd 62c6 fc3e
00000120: 209a a0ba 168e a13d 78a5 52be 50ac febe
00000130: a3da bebe 6e1f 303f 456f febd fd09 b8bc
00000140: 875b 9cbe a72d 3abf a943 94bd 1312 30be
00000150: f719 3a3d e7eb bfbd dbfe 66be 6efc bcbd
00000160: 9927 88bd 3e3c 1ebf dfb3 773e 2ab3 5cbe
00000170: bbf2 c53d 38fd 033e 9073 c7bd 183b 353d
00000180: c287 dc3d b2c5 923e eb13 d43e bfa8 fd3b
00000190: fe0f c03e 2e37 4abe 85a6 6cbe e75b a9bc
000001a0: bad0 80be 4ecb 75be 4225 75be 507d 6d3f
000001b0: 2495 9ebd 2e93 afbc 1c74 503e 060e e1be
000001c0: 8c06 703e 1f45 02bf aa5a 4ebe 5c45 1dbf
000001d0: 1032 aa3d 3a3c dd3d 7f26 c3bc b0ae d7be
000001e0: 9da2 0e3e e410 70be d374 803f a26e 593d
000001f0: bb34 e23e 4d52 3fbf ec43 00bf 4816 a4be

layers.4.weight f4 [88, 128]
0.045771815 -0.3139253 -0.1780821 -0.46802858 -0.10684095 -0.12769893 -0.10360076 0.0096560195
-0.27143866 0.32372382 0.051054362 0.3356172 -0.57009053 0.15009129 -0.06922333 0.104613714
-0.2502236 -0.3615787 -0.07612689 0.084666185 0.13173383 0.023181796 -0.09513041 -0.10919069
-0.2562914 -0.74763286 0.2847349 -0.11477996 -0.2355237 -1.1460239 0.14202873 -0.5714586
-0.09593875 0.12074447 -0.18481973 -0.12756172 -0.1897441 -0.043629125 -0.1988319 0.33543783
-0.16985711 -0.27074748 -0.2054027 -0.0482729 0.28148958 -0.15194342 0.021650963 -0.5145771
0.39543217 0.26034626 -0.015360895 0.3368096 -0.1724057 0.06884438 -0.08353601 -0.025134983
-0.34954932 0.14197384 -0.12105652 -0.36970899 -0.4594344 -0.33464926 0.09062201 -0.23374063
-0.17616327 0.112465054 0.15112132 -0.102344126 0.36877584 -0.059394166 -0.2486732 -0.19145902
0.4059931 0.02322819 0.15608321 0.06495848 0.18903746 -0.6617431 -0.052029595 -0.24932897
-0.17147991 0.15741117 -0.29108834 0.11793147 -0.050885078 0.17144512 -0.5062981 0.037268274
-0.1952376 0.487638 0.010885096 -0.24248956 -0.09566688 -0.4024371 0.21655248 0.19786349
-0.10749157 0.14168969 -0.2541113 -0.41493368 -0.15834886 -0.26178548 -0.4965649 -0.10094624
-0.05638063 -0.13098536 -0.32487768 -0.8435883 -0.054595266 -0.057051435 -0.011099382 -0.22550264
-0.5167694 0.16749012 -0.15693365 -0.12483551 0.1268462 0.13789676 -0.1224613 -0.049507815
-0.16595364 0.11333005 -0.5041117 -0.097183235 -0.141161 0.068228595 0.13631432 0.26393706
-0.09098939 -0.20967889 -0.5395037 -0.6868423 0.2264118 -0.047124594 -0.27077436 -0.11185708
-0.18826705 0.025295382 -0.0518244 0.4085807 -0.3168848 0.20487076 -0.075958125 -0.31572205
-0.35179856 -0.52637887 0.063764066 0.108431265 0.19710068 0.11233007 -0.38470003 -0.012122985
-0.12128981 -0.33870614 -0.22420411 -0.18864115 -0.10548702 -0.78176993 0.17464042 -0.35643443
-0.22636612 0.2531761 -0.2094519 -0.36902717 -0.36148876 0.19554478 -0.067561425 0.12327521
-0.30166093 -0.46873206 0.055488884 -0.23677689 0.37715057 -0.11895719 -0.12417016 -0.30677834
0.2796433 0.28932542 0.24127795 0.122607045 0.3885442 0.021483406 -0.48658964 -0.2874407
-0.21552229 0.08818531 -0.11548252 -0.13358103 -0.48193407 0.03928391 -0.4608278 -0.2798973
-0.48982593 0.33058798 -0.034457486 -0.11719874 -0.3664194 -0.017770158 0.006164943 0.029339695
0.3617014 -0.28551885 -0.057362918 0.1539719 0.15371615 -0.3562121 0.1297102 -0.15241706
0.008802715 0.10735893 -0.16894059 0.2834243 0.023669368 0.66237736 -0.29339874 -0.15151098
-0.17686962 0.42304745 -0.16173746 -0.4095869 -0.36219603 -0.45355073 0.11996343 0.20063345
0.002572159 0.48501477 -0.2552064 -0.25603032 -0.17976466 -0.19468011 -0.78317744 -0.11523826
0.2173347 -0.27682957 0.04895858 -0.8021733 -0.13184808 -0.08645169 0.39154655 -0.24085666
-0.9433791 -0.09610086 -0.3769746 -0.14191477 -0.36225444 -0.034892876 0.022671875 0.34748298
-0.04209151 0.12347658 -0.39900923 -0.40795442 -0.20687889 0.21908665 0.2421181 0.42936555
00000000: 3a7b 3b3d d1ba a0be 275b 36be 71a1 efbe
00000010: 6ecf dabd 82c3 02be a32c d4bd 4834 1e3c
00000020: 02fa 8abe 21bf a53e 611e 513d 05d6 ab3e
00000030: 74f1 11bf 88b1 193e f6c4 8dbd b73f d63d
00000040: 4f1d 80be d820 b9be 6ae8 9bbd 7765 ad3d
00000050: 3ce5 063e c0e7 bd3c bbd3 c2bd 5e9f dfbd
00000060: a038 83be de64 3fbf c6c8 913e c111 ebbd
00000070: 202d 71be e9b0 92bf fb6f 113e 1c4b 12bf
00000080: 897b c4bd e048 f73d 6241 3dbe 8a9f 02be
00000090: 474c 42be 74b4 32bd 979a 4bbe 82be ab3e
000000a0: 06ef 2dbe 6a9f 8abe 1655 52be ceb9 45bd
000000b0: 671f 903e 0e97 1bbe 5c5d b13c 53bb 03bf
000000c0: 1676 ca3e 1b4c 853e 43ac 7bbc 4f72 ac3e
000000d0: 1f8b 30be 48fe 8c3d ed14 abbd e1e7 cdbc
000000e0: 21f8 b2be 9761 113e 7bec f7bd 7f4a bdbe
000000f0: fc3a ebbe 2657 abbe 0898 b93d b459 6fbe
00000100: 2564 34be 1454 e63d 8cbf 1a3e cc99 d1bd
00000110: 30d0 bc3e 4c47 73bd 30a4 7ebe d50d 44be
00000120: 54de cf3e 0c49 be3c 47d4 1f3e f408 853d
00000130: 0993 413e ff67 29bf fc1c 55bd 1850 7fbe
00000140: 6e98 2fbe 6530 213e 8809 95be 0e86 f13d
00000150: df6c 50bd 4f8f 2f3e c19c 01bf 9ea6 183d
00000160: 5eec 47be b0ab f93e 6757 323c 2f4f 78be
00000170: ffec c3bd 3c0c cebe efbf 5d3e ba9c 4a3e
00000180: 8a24 dcbd 1a17 113e e01a 82be 3072 d4be
00000190: 3426 22be bf08 86be c13d febe e7bc cebd
000001a0: 60ef 66bd 0721 06be 5e56 a6be 67f5 57bf
000001b0: 499f 5fbd c4ae 69bd 2fda 35bc 2aea 66be
000001c0: 004b 04bf 8882 2b3e 37b3 20be c3a9 ffbd
000001d0: f8e3 013e cf34 0d3e fdcc fabd b5c8 4abd
000001e0: c0ef 29be 9619 e83d 770d 01bf 0108 c7bd
000001f0: 828c 10be 6fbb 8b3d fb95 0b3e c222 873e
00000200: a558 babd 10b6 56be ea1c 0abf e6d4 2fbf
00000210: 7fd8 673e b805 41bd f0a2 8abe 5315 e5bd
00000220: 14c9 40be 4338 cf3c d245 54bd 7d31 d13e
00000230: b93e a2be a4c9 513e ef8f 9bbd 52a6 a1be
00000240: f11e b4be c4c0 06bf bc96 823d 3611 de3d
00000250: c3d4 493e 4f0d e63d 67f7 c4be 7c9f 46bc
00000260: cb66 f8bd e46a adbe c395 65be 252b 41be
00000270: 9409 d8bd 1322 48bf f0d4 323e 937e b6be
00000280: 85cc 67be 4ca0 813e 8f7a 56be 21f1 bcbe
00000290: 0e15 b9be e43c 483e a55d 8abd b777 fc3d
000002a0: 4d73 9abe a6fd efbe 5048 633d a475 72be
000002b0: e119 c13e d49f f3bd ed4c febd 0d12 9dbe
000002c0: 682d 8f3e 7622 943e 9111 773e 6719 fb3d
000002d0: 44ef c63e f8fd af3c 4722 f9be 6d2b 93be
000002e0: e0b1 5cbe 809a b43d 1982 ecbd 77c9 08be
000002f0: 10c0 f6be 2ae8 203d 9ff1 ebbe b34e 8fbe
00000300: 77ca fabe d442 a93e 4b23 0dbd e505 f0bd
00000310: 539b bbbe b992 91bc 4a03 ca3b cd59 f03c
00000320: ed30 b93e 872f 92be 61f5 6abd cfaa 1d3e
00000330: c467 1d3e 6f61 b6be c0d2 043e 3813 1cbe
00000340: 4339 103c 00df db3d c3fe 2cbe fd1c 913e
00000350: 43e6 c13c 9091 293f 5c38 96be b225 1bbe
00000360: 4f1d 35be ad99 d83e 819e 25be 60b5 d1be
00000370: c271 b9be cd37 e8be 63af f53d db72 4d3e
00000380: ab91 283b db53 f83e 6aaa 82be 6816 83be
00000390: 3a14 38be 395a 47be 517e 48bf 0902 ecbd
000003a0: fd8c 5e3e 9bbc 8dbe cb88 483d 3b5b 4dbf
000003b0: 2f03 07be 950d b1bd ca78 c83e 21a3 76be
000003c0: 4b81 71bf 87d0 c4bd d102 c1be 1b52 11be
000003d0: 6a79 b9be d5eb 0ebd 5eba b93c 4ae9 b13e
000003e0: 2668 2cbd 4ae1 fc3d f04a ccbe 67df d0be
000003f0: 0fd8 53be 4058 603e cfed 773e cdd5 db3e

layers.4.bias f4 [88]
-0.114143 -0.12203654 -0.037564076 -0.21576789 -0.021737147 -0.23509638 -0.12595221 -0.14900641
-0.3094791 -0.27047515 -0.23238373 -0.28184256 -0.2602166 -0.32954383 -0.17507908 -0.25840428
-0.16202651 -0.2653542 -0.2613204 -0.2868343 -0.44433153 -0.1963432 -0.37017855 -0.25302893
-0.31882602 -0.28436342 -0.26285678 -0.21355028 -0.25434998 -0.38216445 -0.16399665 -0.24022897
-0.22545289 -0.08154735 -0.14072572 -0.2600348 -0.3191103 -0.2590804 -0.1574171 -0.11779742
-0.030119691 -0.3593209 -0.18706699 -0.113979116 -0.11117751 -0.23082419 0.15037982 0.05344341
-0.024525799 -0.11178454 -0.14018336 0.14670743 -0.11930712 -0.13460074 -0.011233282 0.005518024
-0.034884457 -0.0063632126 0.11546177 -0.06632992 0.005280246 -0.16986856 0.023754831 0.2022113
0.28973866 -0.097507864 -0.061710637 0.025150513 -0.30298433 -0.2589212 -0.01001321 -0.019758616
-0.03657532 -0.15741521 0.052249864 0.00023759963 0.0133101735 0.044397745 0.08330824 -0.06888901
0.0054233135 -0.092300855 -0.10415489 -0.07192473 0.010250486 -0.0724704 -0.05381244 0.05429132
00000000: cec3 e9bd 4bee f9bd cadc 19bd 42f2 5cbe
00000010: 1a12 b2bc 1bbd 70be 9ef9 00be 2395 18be
00000020: 0b74 9ebe b87b 8abe 00f6 6dbe ab4d 90be
00000030: 1c3b 85be f8b9 a8be ee47 33be 914d 84be
00000040: 47ea 25be 81dc 87be cacb 85be f2db 92be
00000050: 6c7f e3be 310e 49be 0b88 bdbe 028d 81be
00000060: 2a3d a3be 1598 91be 2a95 86be edac 5abe
00000070: 293a 82be 0fab c3be bdee 27be 95fe 75be
00000080: 1fdd 66be 4c02 a7bd 671a 10be 4823 85be
00000090: 6d62 a3be 30a6 84be f331 21be c63f f1bd
000000a0: 92bd f6bc e9f8 b7be 7d8e 3fbe e26d e9bd
000000b0: 09b1 e3bd 2d5d 6cbe 2bfd 193e 7ae7 5a3d
000000c0: 54ea c8bc 4bef e4bd 3a8c 0fbe 793a 163e
000000d0: 4b57 f4bd c7d4 09be cd0b 38bc 8ad0 b43b
000000e0: 01e3 0ebd 7f82 d0bb 3877 ec3d fbd7 87bd
000000f0: ea05 ad3b 06f2 2dbe 7e99 c23c 7b10 4f3e
00000100: a058 943e 34b2 c7bd 4bc4 7cbd 7308 ce3c
00000110: c320 9bbe 5291 84be 720e 24bc d2dc a1bc
00000120: 01d0 15bd 7431 21be f403 563d 2a24 7939
00000130: ea12 5a3c 69da 353d 839d aa3d ae15 8dbd
00000140: 0db6 b13b 3b08 bdbd 294f d5bd 464d 93bd
00000150: a8f1 273c 5c6b 94bd 6f6a 5cbd 9360 5e3d
