checkpoints/TransductionFC_300000_20-01-2023-15-31-38.pth (torch, 159511 bytes, 6 tensors)

layers.0.weight f4 [128, 89]
00000000: 1818 563d 2d19 d23c 504a 5ebd 010c fcbd
00000010: c002 483d 5cdd 863c ffff 953d 4498 033d
00000020: 54fc 09bd 3905 f3bb 723a 81bc 8998 6abb
00000030: 13ad 9bbc 2a00 fcbb f4c4 a3bb 429c 913c
00000040: dfb5 ba3c b85d 9cbc 191a 8dbc c53b 0fbd
00000050: a110 63bd 9521 7abc a718 403d 39e7 a4bc
00000060: 1759 b0bd 113a 063a 709b a4bc cad9 b23b
00000070: 6728 0a3d b3d5 00bd a5e7 ed3b b5d9 c63b
00000080: f3dc 0b3d 0bb6 87bd 1b4b aa3d 54bf 1bbe
00000090: 7d35 553c fd58 da3c 176d 01bd 5b3f fb3c
000000a0: 871a b1bd 81c2 ed3c 3c0e 1bbc 5c89 6cbc
000000b0: f1ce 683b dafc babc afe3 34bd 43b2 8fbc
000000c0: 9b76 d2bc b069 98bd 9c79 5dbd e858 03be
000000d0: 6602 77c0 2f4e 34be df96 a5c0 1fe1 30bd
000000e0: 0aa4 7bbd 51f7 cfbe ce15 80bd 7d18 4dbd
000000f0: 09c5 48bd c021 ffbc e9ba 73bc 957f 97bd
00000100: 8fe1 0abd 0995 cbbc cf81 98bd 35d9 1dbd
00000110: 2c53 d3bc 6bb6 9bbd b6eb e3bc 0270 303c
00000120: 3c8d 963c 7ad8 203d 0ebb bebc 71c8 3b3b
00000130: 65f4 a23c f055 abbd f0ed d8bc b18d 13be
00000140: d7d7 a83d 0577 ccbd a36c 8b3e e8a5 22c0
00000150: c5dc 54be 7d84 81bf bd43 5a3e 0c07 653e
00000160: 878d d8bd 61e3 19c0 824c 48c0 6a1c bd3e
00000170: ef98 80c0 0d3c 24c0 f152 c2be 30f5 ca3f
00000180: bd22 4f3e 22ec debf 5613 1ec0 fb3d 71c0
00000190: 6ec6 3fc0 1620 34c0 6a07 d4be 6a47 283e
000001a0: b532 87be c621 33c0 4d8c 45c0 889a d43c
000001b0: 5d9f 61c0 0a71 4dc0 8e52 39c0 dc67 18c0
000001c0: 7b68 bcbf efb8 95be c744 04be e283 ebbc
000001d0: 4784 49be 3774 a9bd d7c0 37be 55df 85bd
000001e0: 4421 dcbf 9d2f 3bbe dd0c 55be 53f7 523d
000001f0: 61cb 503d c09b 2dbd 4c04 c5bd ffe4 4bbd
00000200: 3296 6fbd fbbf cfbc 5596 e3bc 629f 863c
00000210: 6b08 36bd 4b68 97bc 0e63 acbc a20b 86bd
00000220: a9ef a9bd 6f84 37be 6af5 8ebd 8a94 27bd
00000230: ecc0 8dbc 221f b8bc 5e28 cabd 0b82 03be
00000240: 9028 ddbc 6f80 4dbc 5908 4ebc d6a0 46bd
00000250: dacd 4cbd 8fbc 6bbd 3750 c8bd 89b2 cd3d
00000260: b893 74bd 7070 35bd 2829 a7bf 508b 1cbd
00000270: f812 33bd 52cd b3bd 9059 c3bf 7f77 94bd
00000280: d20f d2bd e439 833c 9360 adbc 0032 88bf
00000290: 3417 b9bd 4ce9 a63d 1bb1 20bc 6fa0 e0bd
000002a0: 1d15 9abe ea60 8ac0 63b4 34bd 2498 323f
000002b0: 3188 30c0 f82a 2dbf ed1e 4fbd 596f 5abf
000002c0: 4794 483f 0c75 653a 2222 36bc 0d3b 043e
000002d0: 4ea1 a7be f1a9 cb3c a855 6b3e 2384 8f3e
000002e0: 751a 0d3f 1434 a6bd 452f 96bd 9211 7bbe
000002f0: ca93 88bd 492e 2dbc 8f75 3b3e ebe8 af3c
00000300: 3c77 b63d 6c49 05bd 90d3 8e3d d782 563e
00000310: 0c51 473e d747 d6bd 5ece b5bd 28e4 bebc
00000320: 54e8 063e badb 1a3d e401 083d eb58 593b
00000330: 1120 38be 9e50 26bd b29b 9c3e 16a6 0bbe
00000340: 081d 143d 0b56 c5bc d726 a8bc 4067 5abc
00000350: c765 293d 72cf 6a3d bfbe 3a3d fd00 19bd
00000360: cdf9 253d d337 583c b377 2cbc adcd 6fbe
00000370: d00d bc3c 97b0 b83d 86d9 09bc 353e 893c
00000380: 1f58 b33d 8ccb 5a3c 348d d2bc 91d2 963c
00000390: 47b1 8b3d 7e73 0f3c 1eaf 243d 041b 063b
000003a0: 5b61 2f3c 9afa 163d 3cbc a33d 30de 1a3d
000003b0: a238 a1bd e8d3 a2bf f06a 26c0 4c13 fb3b
000003c0: 1b17 9e3d 229c 5ebc 5ed3 92be 7620 c53d
000003d0: 6738 ca3d 3521 693d fe8f 393d ae55 603c
000003e0: 8385 093e 477b 5b3e f2d7 77bf 8b1a ffbb
000003f0: e332 8b3e 20f9 173e fe82 3ebb 7689 db3d
0.05226907 0.02564677 -0.05427009 -0.12306977 0.048830748 0.016462974 0.07324218 0.032127634
-0.033687904 -0.007416394 -0.01577494 -0.0035796484 -0.019003427 -0.0076904492 -0.004997844 0.017774705
0.022791801 -0.019087657 -0.017224358 -0.03496911 -0.05543578 -0.015266796 0.04689851 -0.020129787
-0.086107425 0.0005120347 -0.02009365 0.0054580914 0.033729937 -0.0314538 0.00726028 0.006068433
0.03414626 -0.06626519 0.083151065 -0.15209705 0.013013241 0.026653761 -0.031598177 0.030669859
-0.08647638 0.02902341 -0.009463843 -0.014437046 0.0035523737 -0.022825647 -0.04416245 -0.017541056
-0.025691321 -0.07442033 -0.054071054 -0.12826884 -3.8595214 -0.1760795 -5.174667 -0.043183442
-0.061435737 -0.40618375 -0.06254159 -0.050072182 -0.049016032 -0.031144023 -0.014876106 -0.07397381
-0.033906516 -0.024851339 -0.07446634 -0.038537223 -0.025796495 -0.07603153 -0.027822357 0.010768892
0.018377893 0.03926895 -0.023282554 0.0028653408 0.019891927 -0.08366001 -0.026480645 -0.1440952
0.08244293 -0.09983639 0.2723132 -2.541376 -0.20787342 -1.0118557 0.21314903 0.2236597
-0.10573869 -2.404503 -3.1296697 0.3693574 -4.0186687 -2.5661652 -0.37953904 1.5856075
0.20228095 -1.7415812 -2.4699302 -3.769408 -2.9964862 -2.8144584 -0.41411906 0.16433492
-0.26405874 -2.7989364 -3.0866883 0.025952592 -3.5253518 -3.2100244 -2.8956637 -2.381339
-1.4719385 -0.29242656 -0.12916861 -0.02874941 -0.19679366 -0.08274119 -0.17944656 -0.06536738
-1.7197652 -0.18279882 -0.20805688 0.051505398 0.050975207 -0.042384863 -0.0961996 -0.049778935
-0.058492847 -0.025360098 -0.027781645 0.016433422 -0.04444162 -0.018482348 -0.021043327 -0.065451875
-0.08297665 -0.17921613 -0.06980403 -0.040913142 -0.017303906 -0.022475783 -0.09870981 -0.12842576
-0.02699688 -0.012542828 -0.012575232 -0.04849323 -0.050001003 -0.05755287 -0.09780925 0.100438185
-0.059711188 -0.044296682 -1.3059435 -0.038218796 -0.043719262 -0.08779396 -1.5261707 -0.072493546
-0.10256924 0.016018815 -0.021164214 -1.0640259 -0.09037629 0.081499666 -0.00980785 -0.109681
-0.30094233 -4.3243303 -0.044117343 0.697634 -2.7583125 -0.6764369 -0.050566602 -0.85326153
0.78351253 0.0008753098 -0.011116536 0.12913151 -0.32740253 0.024861308 0.22981894 0.280305
0.55118495 -0.08115402 -0.07333235 -0.24518421 -0.066688135 -0.010570117 0.18306564 0.021473369
0.08909461 -0.032540724 0.06973946 0.20948349 0.1946451 -0.10462921 -0.08877252 -0.023302153
0.13174564 0.037807204 0.033204928 0.0033164572 -0.17980982 -0.040604226 0.30587536 -0.13637576
0.0361605 -0.02408888 -0.020526333 -0.013330281 0.041356828 0.05732674 0.045592066 -0.037354458
0.04052143 0.013196903 -0.010526585 -0.23418303 0.022955805 0.09018057 -0.008413678 0.016753295
0.08757042 0.013354193 -0.025702097 0.018410953 0.06820922 0.008755563 0.040206067 0.002046288
0.010704364 0.036860086 0.07994887 0.03780955 -0.0787213 -1.2720919 -2.600277 0.0076622125
0.07719251 -0.01358703 -0.28676885 0.09625332 0.09874039 0.056916434 0.045303337 0.013692303
0.13429837 0.21433745 -0.9681388 -0.0077851466 0.2718726 0.14841127 -0.0029069777 0.10719578

layers.0.bias f4 [128]
00000000: 0da8 543f 3ff9 9d3f 10a9 af3e e104 5a3f
00000010: d18e 2d3f 839a 3e3f 5441 0b40 fc8f 0b3f
00000020: 3891 0b40 03ff c73e d246 6b3f 9e92 cf3e
00000030: e951 ac3e 149b fb3e 1bec d33e 23a1 043f
00000040: 070a 693f f538 383f f78d 813f 90bb 563f
00000050: a064 853f c356 013f 1312 a93f ee60 783f
00000060: c306 df3e 2c23 e23e 9987 a93e c904 d93e
00000070: 9819 bc3e a7db 503f 4675 f83e 2d7d bd3f
00000080: f4dc c43e 24f6 2a3f 654f 373f b72f 8c3e
00000090: bf1a 1d3f ee63 b43f d9fa 173f 7a8e bc3d
000000a0: 5a05 8e3f 1bf0 8b3f 8afb 293f 6e46 943f
000000b0: f2cf 383f 5ba1 123f 5259 333f e439 723f
000000c0: c984 613f 91ec 413f e15d 8f3f e5ee 723f
000000d0: d4ae 633f f5af 683f fd72 4b3f 1640 413f
000000e0: d08f a23f d1d0 143f f892 fc3e 99e8 ae3f
000000f0: 01b7 113f d393 373f 3852 a43f 523d f33e
00000100: 7d26 4e3f 8148 723f 527a 7b3f 042b 0e3f
00000110: e8c3 853f 5659 023f 468f 3c3f c506 3f3f
00000120: a880 8e3e e9b3 0e3f 62d5 993e 177b 7b3f
00000130: 485f a63f d87e dc3e d4ca 443f 50fb 993f
00000140: 03ac f63e 8a2c 053f 7dba d33f c6fb 3b3f
00000150: ddf1 cb3e 356c 553f 593b 1c3f b09f 9e3e
00000160: 41fc 893f b908 323f 9d89 943f e17c f33e
00000170: bd31 0b3f 9f3c 943f e726 f13e eed0 f53e
00000180: 27c3 323f aa85 aa3f 5ad5 423f b4f3 403f
00000190: df45 793f e30f 4c3f f3ea 743e 108d 883f
000001a0: e442 9c3f 3474 21bf 06d1 983e 7589 403f
000001b0: 2235 6d3f e363 833f 4f94 a9be 8df2 ae3e
000001c0: b056 6e3f b550 283f dad3 023f 6f47 493f
000001d0: 977b 923e 0b93 563f 24f2 393f de7a 953f
000001e0: 28d0 af3f 3bdb 433f 7c18 d43e 39da 2f3f
000001f0: 210a c63e aa06 943f 8fdf 3f3f 7cdd 363f
0.83068925 1.2341689 0.34308672 0.85163695 0.67796046 0.74454516 2.1758623 0.5451658
2.1807384 0.39061746 0.9190494 0.40541548 0.33656242 0.49141753 0.41391072 0.51808375
0.91030926 0.7196191 1.0121449 0.8387995 1.0421333 0.5052301 1.3208641 0.970229
0.43559846 0.4416746 0.33111265 0.42386463 0.36738276 0.8158516 0.48526973 1.4803826
0.38449824 0.6678183 0.7160552 0.27380154 0.61368936 1.4092996 0.5936714 0.09206863
1.1095383 1.0932649 0.66399443 1.1583993 0.721923 0.5727746 0.70058167 0.94619584
0.8809324 0.75751597 1.1200525 0.94895774 0.8893864 0.9089349 0.79472333 0.7548841
1.2700138 0.5813113 0.49330878 1.3664733 0.56919867 0.71709937 1.2837591 0.4750772
0.8052748 0.9464188 0.9823352 0.55534387 1.0450411 0.50917566 0.7365612 0.74619704
0.27832532 0.5574327 0.3004561 0.98234695 1.2997828 0.43065524 0.7687199 1.202982
0.4817811 0.52021086 1.6541287 0.7343105 0.39832965 0.83368236 0.6102806 0.30981207
1.0780107 0.6954456 1.1604496 0.47556213 0.5437277 1.1581 0.47099993 0.48010963
0.6982903 1.3322041 0.761068 0.7537186 0.9737224 0.7971174 0.23917751 1.0668049
1.2207913 -0.63067937 0.29846972 0.7520974 0.926592 1.0264858 -0.33120963 0.34169427
0.93101025 0.6574815 0.5110451 0.78624624 0.28609917 0.8381812 0.726351 1.1678121
1.3735399 0.76506394 0.4142493 0.68692356 0.38679603 1.1564534 0.749505 0.7143171

layers.2.weight f4 [128, 128]
00000000: 9322 143f 3dca 01bf 1237 14be d21f 21bf
00000010: e3cf 503e 9d20 83be 5569 c33e c317 8abd
00000020: 6bdf ccbf b1ab 983e e36e 24bf df04 b73d
00000030: f3a1 2a3d c379 d5bc 2d2f 493e bb54 94be
00000040: 062a d2be 956f 25bf 4f01 1b3e 0f4b 8c3f
00000050: f1a5 c53d 8757 d23c f505 fdbd 4e85 8a3e
00000060: d5d0 aabd 3cee ebbd 3a98 19bd 9d7e 14be
00000070: 8f27 a1be 367c 2c3d 17c4 79bd 5b97 763d
00000080: 81f1 b4be b276 17be 3ca6 b63d c459 93bd
00000090: 470e 513d e27b 10bd d854 d0be 0e63 b9bd
000000a0: ab80 913e 6276 91bd 01e8 f2bc de76 0d3e
000000b0: a0b0 0abe 69ac f13d 1218 2fbe f5a7 fe3d
000000c0: c39c 293f 9ca0 bd3e ac56 6f3e 25a2 fdbd
000000d0: 3f1a fb3e 381c 473f 9761 81bd d899 dabe
000000e0: a430 d8bb 7e58 823e 1d71 f2bd 5e79 813e
000000f0: 9cb7 0e3e 51c0 4bbf bf41 19bf fcbf 173e
00000100: 6a9c 6a3f dd40 c7be 00d5 ed3d 1c18 bb3e
00000110: deca 833e 8ca9 433b 6ced 5bbe 7d69 56bd
00000120: e727 593e 69c5 a1bd c649 57bd 4ee4 38bf
00000130: 1433 e4be dfbf 1e3f cb7b 64be b0b3 9ebe
00000140: 7685 373d e7f6 ec3b 7812 2fbd 6be3 5bbe
00000150: 931c d03d 6eb7 ddbd d74b df3f 600f afbc
00000160: 008c 4dbf d43a 3c3d 09d9 813c 2871 0f3e
00000170: c532 c3bd 4208 7cbe 0b26 eabb 1bef 4abe
00000180: 32b0 c2bb 8786 8abd 72aa 1b3f 3c36 2d3e
00000190: ec74 4d3f 5b96 8a3f d688 bdbc fefa e63d
000001a0: 182f 08bf 8cd8 d9bd a407 4bbc 4e49 ddbd
000001b0: 91a1 37bf a84e a03f 85dd ffbd f44e 813c
000001c0: ddf4 ecbd ae8e 3dbd 84d6 3d3e fae2 80bf
000001d0: 799e 9f3e 440a 1cbc 36df 3fbc c1ca 12be
000001e0: 73f2 603f ae94 a1bc b609 d4bd bb67 653e
000001f0: fefa 28be 2247 4a3f 647d 80bf 80d8 b2bd
00000200: 3b45 97bb 7f44 d0be a4c4 6d3f e05b 3e3e
00000210: 40cb b3bd b1a6 5c3f bca0 37bf 619c 2b3f
00000220: 9553 413b 0207 793d 2484 13be bdcd 3dbe
00000230: cb75 54be ad9c 1f3f 4a6d e3bd 18e1 38be
00000240: a6f5 e03f f248 a6bd 3334 1bbe 91a7 95be
00000250: 96f3 09bf 94bc ce3d 439a a9bd 39a6 e43e
00000260: 952d 1e3e d39c 863f 02a2 b73e e3a3 3a3f
00000270: c4c4 1cbf 3107 a9be b6a2 bcbe 738f 243e
00000280: 1b9b 533f c9ef 9d3e bf9b e73d 3e6d 293e
00000290: 26b2 d4be 4d5a d63d 4609 d3bd 4822 49bd
000002a0: f2cc 253f 8e90 50bf cd71 b0be b2dc 9bbb
000002b0: 00af 66be 4b89 3e3e cb58 d33e b752 843f
000002c0: 6051 7a3e 57bd 013f f1ca 953f ed12 2fbf
000002d0: da9a 1bbf ddfc ebbd 4165 283d 9786 37bc
000002e0: 1d10 f23e 346f babc c9c3 62be 32cf 30be
000002f0: 7941 4f3d dcdd 493e 8fd2 873e 4b9a 51be
00000300: 99b3 03be f8d4 2ebf a729 183e 6cb6 0739
00000310: db80 143d a8dc 903d b910 813d 88bd 9c3d
00000320: a80d 1b3f 05ef 3bbe 52ad 073e 9e83 13bf
00000330: 3840 e13a 4856 c03d 2621 f03e e708 bf3e
00000340: 16a7 023f 867b acbd 2ef5 7b3f 2fd9 7bbe
00000350: 7440 b03d 3d4e e43e 2839 16bd e956 973e
00000360: e5aa 2b3e 1381 74be a8dd 0bbf bb7b 193e
00000370: 45d3 443e 2060 333e 1496 5abb 37fb 0a3e
00000380: d85a 99be 5204 85be a5ee 99be e500 663d
00000390: 80a0 6ebe 2f36 8dbe 3c93 19bf cb40 b9be
000003a0: dd87 c53c c33e 27bf 79e3 b7be 4969 833e
000003b0: 1e8e fa3d 11bd a0be 0611 05bf fb57 533d
000003c0: 84d8 ba3e 39e3 10be 49c6 9c3f 574e 81be
000003d0: a3b4 c03c 8568 443e bae9 d73d 8b70 903e
000003e0: 1f19 e6be e6f5 53bf d197 15bf 140a 17bf
000003f0: a26c 673e 3b53 463f 6afb 26bf 5f92 18bf
0.57865256 -0.50699216 -0.14474133 -0.6293918 0.20391802 -0.2561082 0.381663 -0.067428134
-1.6005682 0.2981849 -0.642317 0.08936476 0.041658353 -0.026059037 0.19646902 -0.28970894
-0.41047686 -0.64623386 0.15137218 1.0960406 0.096507914 0.025676502 -0.12354652 0.27054828
-0.08340613 -0.11520049 -0.03749869 -0.14501424 -0.31475493 0.042110644 -0.06097802 0.060202938
-0.35340503 -0.14791372 0.089184254 -0.07194856 0.051039007 -0.035274394 -0.4068973 -0.09052096
0.28418478 -0.07102658 -0.029651644 0.13814875 -0.1354394 0.11800463 -0.17099026 0.12434379
0.66254824 0.37036598 0.23372906 -0.12384442 0.49043462 0.77777433 -0.06317442 -0.42695498
-0.0065975953 0.2545814 -0.11837981 0.25287908 0.13937229 -0.79590327 -0.59865946 0.1481933
0.9164492 -0.38916674 0.11612892 0.36541831 0.25740713 0.0029855696 -0.21477288 -0.052346695
0.21206628 -0.07898981 -0.05256059 -0.72223365 -0.4457022 0.6201152 -0.22312848 -0.30996466
0.044805013 0.0072315815 -0.042742223 -0.21473472 0.101617 -0.10826002 1.744502 -0.021369636
-0.8029175 0.04595454 0.01585056 0.1400801 -0.09531168 -0.24612525 -0.0071456484 -0.19817774
-0.0059414143 -0.0676394 0.60806954 0.1691522 0.80256534 1.0827135 -0.023136538 0.11278342
-0.5319686 -0.10637006 -0.012391958 -0.108049974 -0.71730906 1.2524004 -0.12493423 0.015784718
-0.115701415 -0.046278648 0.18538862 -1.0069268 0.31175593 -0.009523932 -0.0117109325 -0.14335157
0.8786995 -0.019724216 -0.10353415 0.22402851 -0.16501996 0.7901479 -1.0038266 -0.087327
-0.004616407 -0.40677258 0.92878175 0.18589735 -0.08779001 0.8619185 -0.71729636 0.6703549
0.0029499282 0.0607977 -0.14405876 -0.18535514 -0.2074806 0.62348443 -0.111048296 -0.18054616
1.7574966 -0.08119382 -0.15156631 -0.29229406 -0.5388731 0.10094562 -0.08281376 0.44658068
0.15447076 1.0516609 0.3586579 0.7290632 -0.6123774 -0.330133 -0.3684289 0.16070347
0.8265855 0.30847004 0.11309003 0.16545579 -0.41542166 0.10466442 -0.10304503 -0.04910496
0.64765847 -0.8147057 -0.34461823 -0.0047565335 -0.22527695 0.1860706 0.4127868 1.0337743
0.24445105 0.50679535 1.1702558 -0.68388253 -0.6078316 -0.11522839 0.04111219 -0.011201522
0.47277918 -0.022758104 -0.22144999 -0.17266539 0.05059955 0.19713539 0.2652783 -0.20469014
-0.1286148 -0.68293715 0.14859639 0.0001294256 0.0362557 0.07073337 0.06302018 0.07653338
0.6056771 -0.18352897 0.1324971 -0.57622707 0.0017185276 0.09391457 0.4690029 0.3731148
0.510362 -0.08421998 0.9842099 -0.24594568 0.086060435 0.4459094 -0.036675602 0.29558495
0.1676441 -0.23877363 -0.54635096 0.14988606 0.19221218 0.17517138 -0.0033353614 0.13572393
-0.2995212 -0.2597986 -0.30064884 0.056153197 -0.23303413 -0.275804 -0.59990287 -0.36182246
0.024112636 -0.6533014 -0.35915735 0.25666264 0.12234138 -0.31394246 -0.519791 0.051597577
0.36493313 -0.14149179 1.2248012 -0.2525508 0.023523634 0.19180496 0.10542627 0.28210863
-0.4494104 -0.82797086 -0.5843478 -0.58999753 0.22600034 0.7747075 -0.6522738 -0.59598345

layers.2.bias f4 [128]
00000000: b3ba 1d3f a962 4fbe 82ca 283f a356 253f
00000010: 8677 673e c572 cb3e 6d43 92bd bc3a 493d
00000020: f379 123d 694b 0c3f 91b9 2b3f 8ff8 003f
00000030: 4c58 e2bd d9eb 0fbd be0b 663e b37c b6bd
00000040: 72b0 7cbe 6b52 8f3d 150b 653f 459b 9c3d
00000050: 6482 b43e ea47 703d 6ca2 1f3e 4de9 0b3e
00000060: 836b 0b3e d974 2c3f c3d1 05be 891a b1bd
00000070: 3227 e4be 37a4 f43d 5771 333e 2b19 2d3d
00000080: c1a3 2d3e 7a31 593e 0295 e03b b601 ab3e
00000090: d44d 783e 3a84 3a3f 9b19 1a3c f611 483e
000000a0: fa85 7abe 853a 34bc 4e4a b83e 7333 20bd
000000b0: 8690 203e e639 303f dbf4 973d 9244 9f3e
000000c0: 0b51 9a3f fb05 0a3e edcb 9cbc 9dd3 973e
000000d0: ece5 5bbe 37f5 d73e 74c5 8e3e 0e35 a63e
000000e0: 2af5 823e 11d5 543e 92d0 bc3d 64c6 ea3e
000000f0: 641a 513e f9a1 0c3f 0047 133d 8be2 5f3e
00000100: 3a43 193f 94c9 b83e 89df aa3e eede d93d
00000110: e9d5 afbc 1df5 0f3f 1fb4 953e cc41 e8bc
00000120: 319f 193e afd4 b7be 711d 003f 108b 7b3e
00000130: fd39 7a3e 7d70 173f ff25 79bd c3b6 133e
00000140: 7d47 793e 1d72 b93e f0cb a93d 10b7 9abc
00000150: 2ce0 5f3f dac5 d63d d70f 0abe f961 1a3e
00000160: 3b2a a3bd 5ec4 ce3e 00f0 343f 2da9 2d3e
00000170: 1bcb dbbd f80a ecbc 3d25 c5bb c5fa 54be
00000180: f0d2 bcbe e1c2 8f3d b849 e73e cd07 cb3e
00000190: c90b bc3e f98c ec3e 1936 aa3c 92a3 843d
000001a0: 133a 85bd c053 603e 9ba4 9d3f 82ce 8ebe
000001b0: 2de4 573e 0d3a 873e 9a55 1c3f 3baf 51be
000001c0: f1a8 233f c2b7 febd 25a3 453e ed24 b23e
000001d0: 7f85 15be 54e0 8abe f0c5 b53e fd5c fd3d
000001e0: b09f d23e 684a bb3e 6777 023f 4362 293f
000001f0: db43 ea3d 9511 0a3e ff76 5b3f 989c 803e
0.61613005 -0.2025248 0.65934 0.6458532 0.22604188 0.39736 -0.07141767 0.04912828
0.03576083 0.54802567 0.67080027 0.5037927 -0.110519975 -0.03513703 0.22465417 -0.08910503
-0.24676684 0.06998142 0.89470035 0.07646803 0.3525573 0.058662333 0.15589303 0.13663216
0.13615231 0.67365795 -0.13068299 -0.08647639 -0.44561154 0.11945384 0.17523704 0.04226033
0.16956998 0.2121028 0.0068537006 0.33399743 0.24248439 0.7285801 0.009405519 0.19538102
-0.2446517 -0.01100028 0.3599419 -0.039111566 0.15680131 0.68838346 0.07419749 0.31107002
1.2055982 0.13478844 -0.019140208 0.29653636 -0.21474427 0.42179272 0.2788502 0.32462353
0.2557767 0.20784403 0.09219469 0.45854485 0.20420223 0.5493465 0.035956383 0.21863763
0.59868205 0.36091292 0.3337367 0.106382236 -0.021464305 0.5623339 0.29238984 -0.028351687
0.15002133 -0.35904452 0.50044924 0.24564767 0.24436183 0.5915602 -0.06082725 0.14425187
0.24343677 0.36219874 0.08290851 -0.01888612 0.87451434 0.10486956 -0.13482605 0.15076436
-0.07967039 0.4038419 0.7067871 0.16959067 -0.10732099 -0.028813824 -0.006016402 -0.20798786
-0.36879683 0.07019592 0.4517343 0.3965439 0.3672774 0.46201304 0.020777749 0.06476511
-0.065052174 0.21906948 1.2315859 -0.27891928 0.21083136 0.26411477 0.6106812 -0.20477001
0.6392966 -0.12437393 0.19300516 0.34793797 -0.14601706 -0.27124274 0.35502577 0.12371252
0.41137457 0.36580205 0.50963444 0.6616556 0.11438724 0.1348327 0.8572845 0.25119472

layers.4.weight f4 [88, 128]
00000000: 2693 6bbe 1298 123d 78d6 91be 89a2 80be
00000010: 4c0b 1fbd 7747 35be d218 d5bd 86a9 053d
00000020: b34d 81bd 22e2 88be a3ed b8be 0f06 c63e
00000030: 1506 74bd 2993 9fbe 851a 9c3e 45f6 31bd
00000040: 0ebf 99be 51ea b43c 0360 f7bd c3e1 963d
00000050: 0dfb 1c3e b2ce 9cbe be3f 943d 3f4a e33d
00000060: 466a e13d a0a8 d1be 8302 afbd bf06 993d
00000070: c037 323d b366 153d 797c c33d e4b3 0abe
00000080: 61f1 c93b c4cc 53be 1947 213e 5105 24be
00000090: a3a5 353e 469b 7abe 93c9 6ebd 84d7 8dbe
000000a0: 5097 a43c c720 c93e d21d c73d dd65 813d
000000b0: 3fa0 213e 1d88 aabd 8d59 13be 16c6 17be
000000c0: be21 f2bc 6b4c 31bd 1600 9dbd d0f8 023e
000000d0: 595f 81bd daf3 893d 94fb 293d e870 ba3e
000000e0: 2256 153d 4a6b 6e3e 78dc 0b3e c51b 26be
000000f0: e2d3 3abe 3fd7 073d 2f99 aaba 6eda 05bd
00000100: 10cf 4ebd 5a33 fa3d 6091 89be 69ee 4d3d
00000110: d4b6 1abe ed1a c1be 0c28 383d 9e3f 70be
00000120: 03f7 7cbe e111 0f3e 4603 58be ee69 933c
00000130: d59a 8cbe 6fe2 0dbd 9292 d7bd adc8 923d
00000140: 3657 6e3d 4ac7 213e c64d 0cbe 63e6 3c3c
00000150: a449 1cbe fee7 91bd 6b23 e6bc 75cf 98bc
00000160: ef75 8dbe 63b9 c9be 6f80 46bd 4e15 013e
00000170: 7bc7 1c3d 5c9b 683b 0c8f e6bd 84ef 1bbe
00000180: 02e4 c93b 04aa 8a3c cd59 dfbd 10fd bcbd
00000190: c1ac 31be 5769 ae3d abae 09be d4b4 c73d
000001a0: 0354 153c 712a c0bd ebe3 c1be 0a4c 09bd
000001b0: 7910 83be c006 d7bd 4c1f 9e3c da59 8abe
000001c0: eb34 36be 0167 993d 8047 18bd 769f f63d
000001d0: a6a5 343e 6952 29be 35fd d2bd d290 a3bc
000001e0: 3079 83be abcb b0bd 8bc7 eebd b634 acbe
000001f0: 1e38 f9bd 9d42 193e d386 31bf 0a1c 1ebe
00000200: 5986 8ebe b74a b6bd e86b 60be 72ee 6abe
00000210: a7df e1b9 2b17 2bbe 5e0e 0dbe 9a5f 073f
00000220: 1413 80be d54d 15be c163 4ebe 3ca8 7e3e
00000230: ccd3 8cbd bd84 d6bd 8da5 253d 1949 78bd
00000240: 314b 14bf a41e 363e 1edb 3dbe dace 4cbe
00000250: 0398 683e eab9 0a3d 25ab fdbd 2cec 3a3e
00000260: d44b a83e 38cb dcbe 597c 183c f6a4 0dbc
00000270: a204 d33d c93d c2bd ff09 a1be 28bd 613d
00000280: 55a5 063e 3301 ccbd 97e0 c73d 9969 07be
00000290: f490 b83d bc3f 3bbe 7f5f e93c 4963 7dbe
000002a0: 98df c7bd c276 a63e 02a7 a23d 8429 573e
000002b0: ce98 4b3e 8763 4abc 869b 593b e981 9cbe
000002c0: 326d fa3b 87d1 4fbe 4c71 0cbe f6b0 2ebe
000002d0: a4f9 d7be 2ecb 27be f6da cbbc ca34 463e
000002e0: bdd4 b53c 3687 b03e 4955 b53c 196f 343e
000002f0: c80b c0be aba5 c53c 4104 0e3e 6e93 83ba
00000300: 620a cd3b 1ffe 86bd aa8b 59be a293 5c3e
00000310: 7f49 a6be 7a44 80be 2539 323e d5ab eebd
00000320: 148b 33bd 84d1 9dba fd74 60be a73e fabd
00000330: d936 acbd 1cd3 813e 4d35 c6bc 22da 633e
00000340: 438f a63d 03b5 833e b1ed debe 72f4 8e3d
00000350: c8d2 69be b791 00be 7eb5 42be 19ca b6bd
00000360: 938a cfbe ada8 1abf 723a b33d 7dd1 1a3e
00000370: 9290 c6bc f488 77bc 197a 8dbe 6164 8bbe
00000380: fb16 383e 1036 fcbd 7ef1 f4bd e4d9 25be
00000390: 6cbf 67be 26f4 e6bd f377 98be 6f9f 083e
000003a0: 75ad 05be 86a9 93bd 0d93 81be 9e1a 203e
000003b0: fca9 603c 37e5 1dbe 88fe 05bc 0412 c2be
000003c0: 7576 3abe 4128 5fbd e414 f4bd 744d 443d
000003d0: 8f3d 08bc 0fb0 d6bd fb03 a6bb a2b7 083f
000003e0: 30bd 263e 43dd 843d 7ae9 8bbe 6e72 a6be
000003f0: 65f8 44be 020a 863e d27b 0cbf 68c9 36be
-0.23005351 0.035789557 -0.2848394 -0.25124004 -0.038829133 -0.17703043 -0.10405125 0.032632373
-0.06313648 -0.26735026 -0.36118802 0.38676497 -0.059576113 -0.31166962 0.30488983 -0.04344775
-0.30028576 0.022084387 -0.1207886 0.073672794 0.15330143 -0.30626446 0.0723872 0.11098146
0.11006598 -0.40948963 -0.08545401 0.0747199 0.0435102 0.036474895 0.09545226 -0.13545185
0.006162808 -0.2068358 0.15749778 -0.16017653 0.17738967 -0.24473295 -0.058297705 -0.27703488
0.020091683 0.3928282 0.09722485 0.06318257 0.15783785 -0.08326743 -0.1438963 -0.14821658
-0.029557105 -0.04328577 -0.07666032 0.12790227 -0.06317014 0.06735964 0.04149969 0.36414266
0.036459096 0.23283115 0.13658321 -0.1622153 -0.1824489 0.03316426 -0.0013015623 -0.032679014
-0.05049044 0.12216826 -0.26868725 0.050276194 -0.15108806 -0.37715855 0.044960067 -0.23461768
-0.24703602 0.13971664 -0.21094999 0.017994847 -0.27461877 -0.034639772 -0.10526003 0.07167182
0.05818864 0.15798679 -0.13701543 0.011529538 -0.15262467 -0.07124327 -0.02809306 -0.01865361
-0.2762904 -0.3939925 -0.048462328 0.12605783 0.038276177 0.0035492992 -0.11257753 -0.15228087
0.006161214 0.016926773 -0.109058 -0.09227955 -0.17351057 0.08516186 -0.13445537 0.09751287
0.009114268 -0.09383095 -0.378692 -0.033519782 -0.25598505 -0.10499334 0.019302033 -0.27021676
-0.17793624 0.074903496 -0.037177563 0.120421335 0.17641315 -0.16535343 -0.10302202 -0.019966517
-0.25678396 -0.086325966 -0.116591536 -0.33633965 -0.12168907 0.14966817 -0.6934635 -0.15440384
-0.27836874 -0.089009695 -0.21916163 -0.22942522 -0.00043081978 -0.16708057 -0.13775012 0.5288025
-0.25014555 -0.14580472 -0.2015524 0.24868864 -0.068763345 -0.104745366 0.040441085 -0.060616586
-0.57927233 0.17785126 -0.18540618 -0.20000783 0.22714238 0.033868708 -0.12386159 0.18254155
0.32870352 -0.43123794 0.009306991 -0.008645287 0.10303618 -0.09484441 -0.3145294 0.055112034
0.13149007 -0.09961166 0.09759634 -0.13223876 0.090120226 -0.18286031 0.028487919 -0.24744906
-0.09759444 0.3251248 0.079420105 0.2101193 0.19882509 -0.012352831 0.0033204271 -0.30567864
0.0076424116 -0.20294772 -0.13715094 -0.17059693 -0.42182648 -0.163861 -0.024884682 0.19356075
0.022196168 0.34478158 0.022135394 0.17620505 -0.37508988 0.024126848 0.1386881 -0.0010038444
0.0062573412 -0.065914385 -0.21244684 0.21540692 -0.32477948 -0.25052243 0.17404611 -0.11653868
-0.043833807 -0.001204059 -0.21919627 -0.12218981 -0.08408899 0.25356376 -0.024195338 0.2225118
0.08132794 0.25724038 -0.4354072 0.06980218 -0.22834313 -0.12555586 -0.19014546 -0.08925266
-0.4053541 -0.6041363 0.08751382 0.15118976 -0.024238858 -0.015108336 -0.27632216 -0.2722502
0.17977516 -0.12314999 -0.119601235 -0.161964 -0.22631615 -0.11277036 -0.29779014 0.13342069
-0.1305445 -0.072100684 -0.25307503 0.15635154 0.013712402 -0.1541947 -0.008178361 -0.3790437
-0.1820925 -0.05448175 -0.11918047 0.047925428 -0.008315458 -0.10482799 -0.0050663925 0.534052
0.16283107 0.06487515 -0.27326566 -0.32509178 -0.1923538 0.2617951 -0.54876435 -0.17850268

layers.4.bias f4 [88]
00000000: 23cf 60bd 5fe2 6cbc 9072 01be 3b69 efbd
00000010: 9c2a dbbd d8ce 803c 89aa 2fbe 8c2d 24be
00000020: 3baa 47be 3528 88be 43b1 46be 9670 3ebd
00000030: e147 e73d 72db 1abe 1262 c1bd 40a7 40bd
00000040: 0347 83bd 3474 013e b49f d0bd f41c 0d3d
00000050: d61f 94be 755f b2be 93f2 353d 0cf3 51be
00000060: d67b 61be d78c 80be 76cf 99be 6693 53be
00000070: 91f3 ccbe 34dd 223d a542 57be 10b2 94be
00000080: ac5e 9bbd 6e80 7d3b 75ef 143d 0b96 0dbe
00000090: c540 99bd 6110 4fbe c96a 88be de1b 5bbc
000000a0: 2d36 fd3c a739 7fbe d039 c3bd 4b16 ecbc
000000b0: caea 0c3d 5179 f5bd 501d 673e 12ae 8d3d
000000c0: 7a87 133e a535 333e da98 163d e01d b23d
000000d0: 7098 d23d ab92 5c3e 1435 efbd 6cb6 b8bd
000000e0: 36be 92bd c271 acbd cfa3 65bd aa1d f03c
000000f0: d130 5e3c 60a4 25bd da49 ae3d 8c29 723c
00000100: 6b15 423e 590b 9e3d 6b2d 67bd 2ce2 1b3e
00000110: fcbe 083d 291a b53c 0f12 91bc 2ca7 8d3d
00000120: ed91 9a3d a2fe 8dbd 92a0 823c 46e2 76bd
00000130: f721 7aba 70c0 9a3d 1bde 6dbd 1add 37bd
00000140: f540 8f3c 8de0 d6bd c9f0 0abe 66b0 0fbd
00000150: 9566 f6bd 9656 c1bd 68e7 e7bd 006a d1bd
-0.05488504 -0.014458268 -0.12641358 -0.11689993 -0.107014865 0.01572363 -0.17154898 -0.16033
-0.19498532 -0.26593176 -0.19403557 -0.04649409 0.11293007 -0.15122774 -0.094425336 -0.047034502
-0.06410029 0.12641984 -0.10186711 0.03445144 -0.2893054 -0.34838453 0.04442079 -0.20502871
-0.22019896 -0.25107452 -0.30041093 -0.20661697 -0.40029576 0.039761737 -0.21021517 -0.290421
-0.075864166 0.0038681286 0.036361177 -0.13826768 -0.07483057 -0.20221092 -0.2664397 -0.013373343
0.030909622 -0.24924336 -0.09532511 -0.028819224 0.0344036 -0.1198603 0.22569776 0.06917967
0.14407149 0.17500933 0.036766864 0.086971045 0.102829814 0.21540324 -0.11680046 -0.09019169
-0.07165186 -0.08420135 -0.056064423 0.02931102 0.013561443 -0.040439963 0.0851018 0.014780413
0.18953483 0.07717008 -0.0564398 0.15222996 0.033385262 0.0221072 -0.017708806 0.06916651
0.075473644 -0.06933333 0.015945707 -0.060274385 -0.00095418043 0.07556236 -0.058073144 -0.044888593
0.017487029 -0.104920484 -0.13568415 -0.035080336 -0.12031285 -0.09440343 -0.11323434 -0.10225296
